GuandanAgent/model_v1.pth (torch, 131537 bytes, 5 tensors)

fc1.weight f4 [128, 120]
00000000: b9b1 353d 31cb 69bd f6c0 0ebc a2a0 38bd
00000010: cdaa 4a3d a544 8ebd ff6c 10bd 9de9 063d
00000020: b7a5 e03b 6861 c7bd 9836 31bd 647a 6f3c
00000030: 4d0a 40bd c4bd 0ebd 5f6f 823d 0aaf 803d
00000040: 509d 943d 9eb5 7abd 75ff a1bd 422c 88bd
00000050: 4f25 b1bd 9023 163d 002d 243c 6c6a b53c
00000060: 5cf0 45bd 95c1 41bd eca7 253d a01a 43bd
00000070: 044d 293d 22fe 86bd 5f8a 1fbd 008b 89ba
00000080: 87aa 62bd 707e 1b3d 08c3 8a3d 4ac9 abbd
00000090: e02e 583c 58af 623d 2c08 85bd a8aa 483d
000000a0: d4e9 d1bc b83e 1c3c 9df6 b2bd a584 2ebd
000000b0: 2081 53bd 60f6 b1bc 75e8 8bbd 408f d03b
000000c0: a042 583d d814 763c 9795 66bd c05d ca3c
000000d0: ac46 b13c a091 523b 7868 293d d8de 4e3d
000000e0: 68b2 183d 60cf 723b 9858 d43c ec52 883d
000000f0: 4089 61bd 14bb 593d f042 e5bb a053 3e3b
00000100: f829 0b3c 4656 8cbd 102b c0bc a864 8dbd
00000110: b40b 373d fd05 53bd 70b3 be3b 5c98 8ebd
00000120: 0f54 59bd b038 aebd 4012 6d3c 2482 8dbd
00000130: 500e d4bb 5c8a 823d 81e4 38bd e8c5 153d
00000140: e612 923d f6e7 943d 6044 a3bd bc7f 433d
00000150: 656d 0dbd aed8 84bd c891 28bd d809 44bd
00000160: ef31 96bd 9af1 b53d 5850 9a3d 7c9e db3c
00000170: fe54 3cbd 24e4 54bd ec4b 79bd 0026 28b9
00000180: 0012 423a 4d10 4bbd 88cd a03c 6cdc b0bd
00000190: 2cfa a9bd da8c b03d 0065 8c39 0060 283d
000001a0: a4cb 693d fcd8 803d 588f 893c 7806 a93d
000001b0: 9cf3 cebc f4a5 af3d c033 e83c 7c60 81bc
000001c0: 64e1 d9bc c4e1 583d 3d47 a0bd 0080 7b3d
000001d0: 8f8f 7dbd a0ad 9c3c 0c68 b23d 5033 fb3c
000001e0: bbdc 1b3e 111b 273e 1368 30be 3194 afbd
000001f0: 8971 d53c a3ed 6bbd f217 93bc 21de 26be
00000200: 2598 cabd 9e53 30be 024c 01be 6dc7 76bd
00000210: d492 9cbd acb3 c13d 1c28 bebc c404 6fbd
00000220: 9c22 7f3d 7055 a9bb 2f03 3bbd eac5 90bd
00000230: e2f8 92bd 602c 92bc 4d1e 16bd 95b7 3fbd
00000240: 502c 3a3d c061 18bc 943a f13c 9897 453c
00000250: 3000 853d d288 febc 40fb 023c f408 4b3d
00000260: a67d 27bd ec5c 6b3d a0d3 083b 388e 63bc
00000270: 3932 20bd 5996 5abd 34b1 a3bc f056 733d
00000280: da5e 89bd bac5 9f3d b029 b53d 95a0 41bd
00000290: c29a 20bd d87d 453c 4884 f53c 3407 c53c
000002a0: 76f2 f8bc 408f e7ba f0b4 313d bbef 7abd
000002b0: fc19 74bd 5019 183c 00fb 7dbd f441 c93c
000002c0: 6be7 96bd 0028 53bb 7419 233d 84f2 b53d
000002d0: 302c a43c a095 503b 8c12 b6bc c42e aabd
000002e0: 4cee 3cbd 8cf9 1c3d 4cc8 483d 4328 20bd
000002f0: a6c7 6abd 3e82 6cbd 91c0 87bd b096 a2bb
00000300: 1a93 2ebd e4cb 3c3d 34b6 263d b8c2 9cbd
00000310: acea 383d 758c 7ebd c069 453d e717 9abd
00000320: 00a0 afbd f49d 0e3d 08a2 923d 6c46 903c
00000330: e8a8 533c 8c6d 9fbc 1413 633d 1ac3 41bd
00000340: f4a9 403d 9471 403d e088 d2bc 60f9 11bc
00000350: 5c43 bd3c f41f 3d3d 54a1 94bd ebcd 13bd
00000360: 687f b2bd 5687 993d a0f8 703d 20d9 1d3b
00000370: 6e8a b13d 2021 4c3d f83f 203d f09e 0c3c
00000380: 78c6 a63d 6841 0d3c 03f6 0ebd ffa8 54bd
00000390: 9878 e5bc 4ee1 01bd 57e7 8dbd 334c 05bd
000003a0: d9c7 2cbd f830 613d 66f1 933d dc42 63bd
000003b0: ccb2 283d f444 963d e870 08bd d8e3 4c3d
000003c0: 12d5 febe cb54 bebe f9ac 09be 4f8b 83be
000003d0: 5a61 c0bd 91e3 a0bd f0c4 e3bd db3c b73d
000003e0: d43c bbbc ed04 76bc a289 013e fcf3 3fbd
000003f0: 5a13 083d dcd5 23bd 5db4 fa3d c039 923b
0.044358943 -0.057078544 -0.008712998 -0.045075066 0.049479295 -0.06946687 -0.035260197 0.032937635
0.0068556922 -0.09735376 -0.043264955 0.014616583 -0.046884824 -0.034848943 0.063688986 0.06283386
0.072565675 -0.06120836 -0.07910053 -0.066490665 -0.08649694 0.03665501 0.010020494 0.022145472
-0.048324928 -0.047303755 0.040443346 -0.047632813 0.041333213 -0.06591441 -0.03895032 -0.0010493696
-0.05533841 0.037962377 0.067754805 -0.08388002 0.01319477 0.055343002 -0.06495699 0.048990875
-0.025624193 0.009536438 -0.08738444 -0.04260697 -0.051636815 -0.021723926 -0.06831447 0.006364733
0.052797914 0.015019618 -0.056295004 0.024702907 0.021640144 0.0032130256 0.041359395 0.05050549
0.037279516 0.0037049875 0.025921151 0.06656441 -0.055062532 0.053156927 -0.006996505 0.0029041544
0.008493893 -0.06852393 -0.023458034 -0.06903964 0.044688895 -0.051519383 0.0058197305 -0.06962654
-0.05305868 -0.08506906 0.014469683 -0.06909588 -0.0064714327 0.06374046 -0.045139793 0.03656569
0.07132511 0.072708055 -0.07972026 0.04772924 -0.034528155 -0.06486641 -0.041154653 -0.04786095
-0.07333743 0.088839725 0.075348556 0.02680897 -0.045979492 -0.051975384 -0.06086342 -0.00016035885
0.0007403195 -0.049576093 0.019629255 -0.08635792 -0.082996696 0.08620615 0.00026778132 0.041107178
0.057078972 0.062913865 0.016791984 0.08253187 -0.025262646 0.08576575 0.028344989 -0.015793078
-0.026596732 0.052949682 -0.078260876 0.061401367 -0.061904486 0.01912576 0.087112516 0.030664116
0.1522092 0.16318919 -0.17227201 -0.08573187 0.026055114 -0.057599675 -0.017955754 -0.16295673
-0.098923005 -0.17219397 -0.12626651 -0.06024878 -0.07645193 0.09458098 -0.023212485 -0.058354154
0.062288865 -0.0051676556 -0.045657333 -0.07068999 -0.07176377 -0.017843425 -0.03664999 -0.046805937
0.045452416 -0.009300649 0.029446878 0.012060069 0.064941764 -0.0310711 0.007994473 0.049569085
-0.040891312 0.057461664 0.0020878091 -0.013888888 -0.039110396 -0.05336604 -0.019981958 0.059409082
-0.067075446 0.07801385 0.08845842 -0.047272284 -0.03921009 0.012053929 0.029970303 0.024051286
-0.030389052 -0.0017666593 0.043385446 -0.06126378 -0.059595093 0.009283379 -0.06200695 0.024567582
-0.07368358 -0.0032219887 0.039819196 0.08884147 0.020040601 0.0031827465 -0.02222564 -0.08309701
-0.046125695 0.038323924 0.049019143 -0.039100897 -0.057319306 -0.057741396 -0.06628526 -0.004961811
-0.042620756 0.046092883 0.040701106 -0.07654327 0.045145676 -0.06214567 0.048196554 -0.0752409
-0.085754395 0.034818605 0.07159811 0.017611705 0.012918688 -0.019461416 0.055438116 -0.047305204
0.04703708 0.046983317 -0.025700033 -0.008909553 0.023103409 0.04617305 -0.072573334 -0.03608505
-0.08715707 0.074965164 0.058830857 0.0024085715 0.086689815 0.049836278 0.039123505 0.0085828155
0.08143324 0.008621551 -0.034902584 -0.05191898 -0.028011605 -0.031709008 -0.0692889 -0.032543372
-0.042182777 0.05497834 0.072237775 -0.055483684 0.04118614 0.073373705 -0.0333108 0.050021976
-0.49771935 -0.37174067 -0.1344489 -0.25692222 -0.09393568 -0.07855905 -0.11121547 0.08947154
-0.022856154 -0.015015823 0.12650159 -0.04686354 0.03322158 -0.039998874 0.12241433 0.0044624507

fc1.bias f4 [128]
00000000: bb24 ecbd 0303 5ebb 0fad cf3d 2408 2fbd
00000010: 16ce d1bc 06f1 e63c 46a3 823d 7a76 b93c
00000020: b52d 5a3d fe18 fabd e437 71bc facf 873d
00000030: 5c3a 8fbd f3c1 863d 70a9 5bbd 6924 c23d
00000040: 49be 36bd 38c8 ba3d 2b86 6dbd d068 6abc
00000050: 1705 a03d 81ed c0bd 5a93 973c d246 4cbd
00000060: f91d 27bd 924b a63d a4d8 bf3d cc58 abbd
00000070: 453d c4bd 0120 02bd e261 ccbd c941 ab3c
00000080: aca5 c6bd 18f1 07be 31ee 3c3d ddc4 2e3d
00000090: 95dc 84bc 4b47 99bd 668f 463c 4b06 6dbd
000000a0: 6a69 0a3d 77aa b63d 8acd 1c3c 720d 0ebd
000000b0: 1446 d3bd 5d04 38bd fb0d b83d 2fe5 c5bd
000000c0: bdc9 e4bd 10ea 813c 28d8 05bd ba3b 823d
000000d0: 279f 543d adc2 d13c 507a a4bc 1d6c ff3d
000000e0: 0c75 ba3d 4f1d 9cbd 9cee 363d 96ff 993c
000000f0: 39e1 173d ce61 0ebc f4ba d1bd 878e 703d
00000100: eddb 93bd 6401 ea3c 00be 21bd 3cda 5bbd
00000110: fc99 b2bc 8542 c0bd f92e c0bd 1e7b 33bd
00000120: 33b4 8f3d b66d c7bc 6615 a9bd 1140 c63d
00000130: f47b 0a3d 2b9e 9fbc 36df 51bd 6097 243d
00000140: 6c62 83bd 3e13 c53c b225 843c cee8 c13c
00000150: f267 9dbc c3b1 f1bd bf29 f7bc 1cc6 403d
00000160: 5bd2 93bd 5b88 993c af9b 5cbd aa79 6f3d
00000170: ee16 0a3d c2de 2f3d ae4e 47bc bdd8 a0bd
00000180: 81f7 26bd b0fb 2d3c 7639 3fbd 4617 e1bd
00000190: aaa9 c4bd 3b25 c13d 84ce 373d a1c3 aebd
000001a0: 9f16 873d 1625 42bc ecf0 283d b902 a8bc
000001b0: 4533 34bc 8d0d b03d 4322 cfbd edb6 14bb
000001c0: 9363 f53d 51ef 61bd 0eab 79bc 25bc 2cbe
000001d0: fca7 043d 428b f23d 7834 23bd d13a 643d
000001e0: 888c a13d f28d 3ebd 78ef c1bd 91aa 853d
000001f0: be22 853c b387 4a3d e0f4 e33c 6f88 573b
-0.11530443 -0.0033876307 0.1014043 -0.042732373 -0.025610965 0.0281911 0.06378798 0.022639502
0.053266246 -0.12211798 -0.014722798 0.06631465 -0.06993553 0.06579962 -0.053628385 0.09479601
-0.044615064 0.0912022 -0.05798928 -0.014307216 0.07813471 -0.094203 0.01850288 -0.049872227
-0.04080007 0.08119883 0.09367493 -0.08366546 -0.09581999 -0.031768803 -0.09979607 0.020905392
-0.09699568 -0.13275564 0.046125595 0.042668212 -0.016218463 -0.07484301 0.01211915 -0.05786733
0.033791937 0.08919232 0.009570489 -0.03468079 -0.10316101 -0.044926036 0.089870416 -0.09662854
-0.11171291 0.01585868 -0.032676846 0.06359048 0.051909592 0.025605524 -0.020077854 0.12471793
0.09104356 -0.07622778 0.04466115 0.01879863 0.037080023 -0.008690311 -0.102407366 0.058729675
-0.07219682 0.028565116 -0.03948784 -0.05367492 -0.021801941 -0.093876876 -0.09383959 -0.043818586
0.07016792 -0.024344306 -0.082560346 0.096801884 0.033809617 -0.0194846 -0.05123826 0.040183425
-0.06415257 0.024057027 0.016131256 0.02367058 -0.019214604 -0.118014835 -0.030171273 0.04706393
-0.072178565 0.018741777 -0.05385941 0.058465637 0.033713274 0.042937048 -0.012164755 -0.078538395
-0.040763382 0.010619089 -0.04668566 -0.10990767 -0.09602673 0.09430929 0.044874683 -0.08533407
0.065961115 -0.011849662 0.041245386 -0.02050911 -0.010998552 0.085963346 -0.10113957 -0.002269204
0.11981883 -0.05515987 -0.0152385365 -0.16868646 0.032386765 0.118429676 -0.03984496 0.055720154
0.07888132 -0.04652209 -0.09469503 0.065266736 0.016251918 0.04944582 0.027826726 0.0032887717

fc2.weight f4 [128, 128]
00000000: d84e a1bd 52eb 81bd e634 333d 2aa0 a53b
00000010: 1b8a 6d3d 3cf8 6dbc 6c95 6b3c 45ae b4bd
00000020: cbf0 9e3d 4f22 853b 53e2 993d 76ea 5b3d
00000030: e0cd 43bb 6f0e 2dbd 9d19 413d 6d1f 093d
00000040: 85a9 9fbd 656c 323d d546 3fbd e220 82bd
00000050: 5e95 bc3b 11d8 c53c be06 bdbc 415f f5bc
00000060: f6b2 7f3d 2fcd 3b3c 560b 033d 1743 87bd
00000070: 9961 8cbc 9966 4dbd 82ac 3bbd df42 aabd
00000080: f817 2f3d d162 57bd 93cf a8bd 17e3 f33b
00000090: 9f6d c03c 2755 9b3d a076 d33c 6029 b43c
000000a0: a104 99bd 18ca 803d 1bc0 a03d ea64 68bc
000000b0: 1335 203c 4f02 0ebc a44a 46bd 9c10 4f3d
000000c0: 133a b13d dc17 b4bd 9e29 9dbc d17c a4bb
000000d0: 26a2 1bbd 7a36 813d ab24 9cbd 18ba e43c
000000e0: cabc 583c cbff c53a 086e 6d3d 6a70 89bd
000000f0: 0de0 bebd 7d6a 69bd 4eb6 08bd 428e 993d
00000100: 2079 a73b 2ae5 543c d487 9cbd b24f e43c
00000110: 11f1 03bc fa05 9bbd 4722 8dbd 5111 8dbd
00000120: 319d 913d 80ff 14ba f5e4 2bbd 3f4c 4cbc
00000130: de5d 07bd 45b2 8c3b d39b c73c e283 833d
00000140: 51fc 353d 5b66 55bd 4f3b 79bc 0ade 7b3d
00000150: f03e afbd d8dc d53c a31b 433d 077f 643c
00000160: 870b bbbc 5985 b9bd 4ad8 363d fed8 403d
00000170: 283e f3bc 3053 903c 52b6 96bd df9d 0cbd
00000180: 4229 73bd b825 c2bd 2886 bebd bc89 513d
00000190: e608 5dbd 60ac 693b 2a05 b7bc d2ee adbd
000001a0: ed00 5fbd 8bf4 b73a be7c 43bd e984 94bd
000001b0: f33a 1dbd ca27 c73b 783e 34bc 7688 e3bc
000001c0: e1b9 13bd 4d43 82bd cef9 1e3d 3ac8 0bbd
000001d0: 8537 87ba fd22 0bbd 1bc2 893d 387c 793d
000001e0: 3922 75bd e846 adbc 6e32 bebd 04ee 853d
000001f0: d7d2 703d 8f3b b8bc f61c 9a3d 7239 54bc
00000200: bb5c ae3d bfa1 21bd f614 0c3e d0aa 503d
00000210: c2e6 373e 760d 2fbb 8663 40be 8b2f 7fbe
00000220: 1e76 113d 15d2 3c3e 10db 7f3d fe01 883d
00000230: 0388 00be 6845 1c3e 2c7b 7fbe 7c83 7f3e
00000240: e2a8 0fbe bdc3 013e df05 89bd 1bab 923e
00000250: 8eda 423e aac1 86be 854a e23c 4771 cdbd
00000260: 5e1d d9bd c04b 863c fedd 233d 8999 b33d
00000270: 31e6 df3d e9ef 763d 3d9e fbbd 31ff f2bd
00000280: 8bba 99be 99c2 ccbd cf04 a6bd 56cc b53d
00000290: 37fa 18be 704f 4fbe b34b 71be 4433 a0bd
000002a0: 0821 e93d 6e40 e23d 2dd4 d4bc 15c6 33be
000002b0: 8644 e8bc 5c96 89bd 93d8 cf3b 4530 a7bc
000002c0: c1c0 273d 6451 efbd 3f1b 65be 32cf 093d
000002d0: f5c3 7b3d e9f5 b8bd 33a0 9bbd ea90 0d3e
000002e0: 57b2 4f3d 1e6a d83c 2338 0d3d 3414 2bbe
000002f0: 7c1e 7f3d 6ef0 593d ce62 013d 0ca4 073e
00000300: 6da0 a53d 453c 12be b2f2 1c3e da0c 8abd
00000310: e3b3 63bd 4545 adbc 591f df3c 8d97 64be
00000320: 5e33 603e 21e0 37bd d5cb cd3b babc c73e
00000330: 4aa4 2ebd 1d79 aebd e348 2dbd 26df 1fbe
00000340: bd52 2abe 4137 913c dde0 043e 25f2 e1bd
00000350: e99d 1d3d d084 203c 7bdd 283e d5ff 7fbe
00000360: 4cfb 1abd f8e6 b23e debc 863d dd40 91bd
00000370: 8bbe c2bd 059e a8bd 150e cf3b 31d9 97bd
00000380: 6fc7 efbd 4d68 4bbd b713 1ebe 5431 24bc
00000390: 8154 8a3d 21ea 423e df27 47be 5af7 8ebd
000003a0: 8f7d b3bd 84b7 f6bd 2653 98bd 7296 f63c
000003b0: bceb a33d 0c50 b6be 0ac0 d33c 770b 93bd
000003c0: 7523 f03d eefc c63d 6992 71be c57f 973d
000003d0: 0dd4 b9be 2d2b 6f3e e384 e2bc e784 5e3e
000003e0: 2ef2 3d3b 4c93 583d 7862 f6bc af62 873d
000003f0: f92d ec3d 9cce a43d 8692 f03d 96d1 a7bd
-0.078763664 -0.06343712 0.04375162 0.0050544934 0.057993036 -0.014524516 0.014378887 -0.08822302
0.07760771 0.004062928 0.07513871 0.053690396 -0.002987735 -0.042250093 0.047143567 0.033477236
-0.07796005 0.043560404 -0.04669841 -0.06353928 0.0057551106 0.02415088 -0.023074504 -0.029952647
0.06242653 0.011462494 0.031993233 -0.06604593 -0.017136382 -0.050146673 -0.045818813 -0.08313536
0.042747468 -0.052584473 -0.08242717 0.0074428427 0.023489771 0.07584601 0.0258134 0.021992385
-0.07471586 0.06288546 0.07849141 -0.014184216 0.009778279 -0.008667543 -0.048411027 0.05055295
0.08653655 -0.08793613 -0.019184884 -0.005019762 -0.037996434 0.06309219 -0.07624181 0.027920768
0.013228605 0.001510614 0.057966262 -0.067108944 -0.09320078 -0.05698632 -0.033376984 0.07497837
0.005110875 0.01299409 -0.07643095 0.027870033 -0.00805308 -0.07569499 -0.068913035 -0.068880685
0.0711006 -0.00056838244 -0.041966397 -0.01246935 -0.033048503 0.0042937123 0.024366295 0.06421639
0.04443008 -0.052099567 -0.015211894 0.06149105 -0.08556926 0.026106283 0.04763378 0.013946301
-0.022832645 -0.09058637 0.044639863 0.04708194 -0.029692724 0.017617792 -0.073589936 -0.034330245
-0.05936552 -0.094798505 -0.09302932 0.051156744 -0.053963564 0.0035655722 -0.02234133 -0.08492817
-0.054444242 0.0014034671 -0.047726385 -0.07251913 -0.038386296 0.0060777413 -0.011001222 -0.02777503
-0.03606594 -0.06360493 0.03881245 -0.034126498 -0.0010316229 -0.033968914 0.06726476 0.06090948
-0.05984709 -0.021151975 -0.092869624 0.065395385 0.058794823 -0.022489337 0.07525055 -0.012953149
0.08513781 -0.039460894 0.13679871 0.05094415 0.17959121 -0.0026710904 -0.18787965 -0.2492048
0.035513036 0.18439515 0.062464774 0.06641005 -0.12551884 0.15260851 -0.2494933 0.24952501
-0.14029267 0.12672324 -0.06690573 0.28646168 0.19028684 -0.2631963 0.027623424 -0.100313716
-0.106013045 0.016393542 0.04000663 0.08769519 0.109325774 0.06028739 -0.12286041 -0.1186508
-0.30025133 -0.09998054 -0.08106386 0.088768646 -0.149392 -0.20245147 -0.23564033 -0.07822278
0.11383253 0.11047445 -0.02598008 -0.17556031 -0.028352987 -0.06718132 0.0063429563 -0.020408759
0.04095531 -0.11685446 -0.22373675 0.033644862 0.061466176 -0.09031279 -0.07598915 0.13824812
0.050707188 0.026417788 0.034477364 -0.16706926 0.06228493 0.053207807 0.031588368 0.13246173
0.080872394 -0.14280804 0.15326956 -0.067407325 -0.055591475 -0.021151194 0.027236627 -0.22323437
0.21894595 -0.04489148 0.006280402 0.39011174 -0.042637147 -0.08519194 -0.04230584 -0.15612468
-0.16633125 0.017726542 0.12976404 -0.110325135 0.038480673 0.00979729 0.16490738 -0.24999936
-0.03783731 0.3494184 0.06578992 -0.0709245 -0.095089994 -0.08233265 0.0063188174 -0.07414473
-0.11707961 -0.049660016 -0.15437208 -0.010021526 0.06754399 0.19034626 -0.19448803 -0.06980772
-0.08764183 -0.120467216 -0.07437734 0.030101035 0.08003947 -0.35607946 0.025848407 -0.07179921
0.11725513 0.09716211 -0.23591007 0.07397417 -0.36294594 0.23356314 -0.027651256 0.21730386
0.0028983462 0.05287485 -0.03007625 0.06610619 0.11532206 0.0804722 0.11746697 -0.08194272

fc2.bias f4 [128]
00000000: 2c28 bfbd 7e29 08bd 0e6d a9bd 0558 c9bd
00000010: 8206 a93d 5232 82bd bfff 33bd bca7 b3bc
00000020: 91b0 44bd b21c 9cbc f33c 87bb 4685 9cbd
00000030: c992 d93c dcbb ab3c a568 85bd 9257 6b3c
00000040: ffd9 03bd 5af7 e63a 5353 94bd f7a7 bcbd
00000050: ed47 823d 35f2 bd3c 158b c8bb c098 403c
00000060: 9e75 c7ba 0696 933d 8967 93bd 12d3 cdbb
00000070: dca1 18bd 41ce e2ba c1e6 b9bd 3c39 1bbd
00000080: c265 91bd c0ae 23bb 277d 783b 545a c5bc
00000090: a4c2 42bc 3c6b 9ebd 73c0 a7bd b0c9 12bd
000000a0: ecba 58bd 951d bbbc c37e 03bd 32b7 0f3d
000000b0: f071 38bd cb22 5fbd 2ee8 a3bd e193 85bb
000000c0: f815 9fbd 2901 e83d 2aa7 92bc 72ae a13d
000000d0: 57de 393c e335 8bbd ae63 c3bc 8c1f 513d
000000e0: 72fd e43c c93c f13c aae8 71bd b1c7 06bd
000000f0: 473a b6bd ee86 493d 04c2 91bd 7fa7 53bd
00000100: 2068 6ebd 0822 223c dfa4 933d 0f8a 953d
00000110: 0396 83b9 bee5 f6bc cdab 95bd ec8e a7bd
00000120: 303c fdbc 0f64 89bd 1e05 d1bc c6f5 b1bd
00000130: 7ce7 d7bd 1714 d2bc 20a5 2bbd 26fb f0bd
00000140: 3a7f 06be 1828 9ebd ae35 90bc 9e6d c0bd
00000150: 594b c33c 6ca6 a7bc 41a5 e2bd 0a45 743d
00000160: 4044 3e3e 5922 8cbd 3cba 053d f855 6b3d
00000170: 3358 13be 3449 7ebd bf3d 6cbd e86f 8dbd
00000180: 2129 82bd 6668 48bd 579a bf39 7997 7bbc
00000190: 2064 20bd 3dfb 4ebd d366 babb f133 89bc
000001a0: 1704 54bd c71b 05be a6fb 18bc 5fb8 18bc
000001b0: 4da4 993d 1fcc 803d b7e9 b73d e196 51bc
000001c0: 3d63 aabd 34aa 26be 8f02 0ebd 3445 26bc
000001d0: a8d8 e9bc c92c 5dbc 955b 01bd 2646 083d
000001e0: 7d5b a7bd e011 cf39 9098 42bb 8e28 eebd
000001f0: 852c 573d 269d f83c aa86 c7bd b5d5 d5bc
-0.09333834 -0.033242695 -0.08272754 -0.098312415 0.082531944 -0.06357254 -0.04394507 -0.021930568
-0.04801995 -0.019056652 -0.0041271388 -0.076426074 0.02655925 0.020963602 -0.065141 0.01436414
-0.03219032 0.0017621324 -0.07242455 -0.09211724 0.06361375 0.023186782 -0.0061200955 0.011755168
-0.0015217548 0.07206349 -0.07197482 -0.006281265 -0.037263736 -0.00173039 -0.09077216 -0.03789638
-0.07099487 -0.0024975985 0.0037916393 -0.024090923 -0.011887226 -0.07735297 -0.08191004 -0.035836875
-0.052912638 -0.022841254 -0.03210331 0.035086818 -0.045030534 -0.05447654 -0.08003269 -0.0040764664
-0.07767862 0.11328346 -0.017901976 0.07894601 0.011344514 -0.067973875 -0.023851242 0.051055476
0.027952883 0.02944793 -0.059059776 -0.032905284 -0.08897834 0.049200945 -0.07117084 -0.05167341
-0.05820477 0.009895809 0.07209181 0.07301723 -0.00025098035 -0.030138846 -0.07308159 -0.08181557
-0.030912489 -0.06708538 -0.025515135 -0.08689456 -0.10542199 -0.025644345 -0.041905522 -0.11766653
-0.1313447 -0.07722491 -0.017603721 -0.09395908 0.02383964 -0.020465098 -0.11066676 0.059636153
0.18580723 -0.06842489 0.03264831 0.057455033 -0.14389114 -0.06208153 -0.057676073 -0.0690611
-0.06355501 -0.048927687 0.0003654535 -0.015355938 -0.039157987 -0.05053257 -0.005688527 -0.0167484
-0.051761713 -0.12998877 -0.009337341 -0.009321301 0.07502041 0.06288933 0.089801244 -0.01279232
-0.083197095 -0.16275865 -0.03467041 -0.010148335 -0.028545693 -0.013499447 -0.03158148 0.033270024
-0.08171747 0.00039495435 -0.0029692985 -0.11628829 0.05253269 0.030348372 -0.09742482 -0.02610288

fc3.weight f4 [1, 128]
00000000: 39e6 d03c 65bc 0a3e 6060 1cbc 8af1 4bbd
00000010: 7d1a 663e ccfd 48bd 8a17 d83b 7842 7e3a
00000020: b4be 123e 6763 363c b3ce 9dba 66ca 38bc
00000030: d7b2 6e3b 2b06 88bd 0985 493c 879a 283e
00000040: c61e 163e c96d 643d ba6a 983d c492 82bc
00000050: 5840 aebc f8e7 fc3d fffe 3dbc 7623 fd3c
00000060: ca51 7dbb 80e7 f9bd 28b2 7a3c 74f6 0b3e
00000070: e5c8 b0bd 31fc b53b 2e5b fb3d cdb9 b4bc
00000080: 8ab6 27bc 8bc3 79bb 7335 16bc 25fd 373e
00000090: e99e 87bc 2b5b 29bd ea7a 5cbd 0b3d 9f3d
000000a0: b462 793e d1fe eabd 2f48 fe3b cb46 5d3d
000000b0: 6b80 e83d 989c 4dbd b9df 503c 4652 99bd
000000c0: 97bb 5d3c 47c6 8e3d 2c5d 443b 24fb fc3d
000000d0: f16a 893d c329 c43d 527e 8c3b 58d5 8fbd
000000e0: e855 043d 4d6a bd3c 69e6 c7bd eda1 8eb9
000000f0: 248e 113d 6ced 88b9 07e2 753c dad1 283e
00000100: bfe1 573d 888c d1bd 0e07 273d c5fc cf3d
00000110: bb03 e1bb 154f 50bc fd1b 843c c527 1c3d
00000120: d58c 743d e1dd cf3b 212d d03c ce5b 0c3d
00000130: 0482 ccbc d5f2 98bb 2089 72bb 21e2 d839
00000140: a1c8 bf3b fffb fcbb d107 f439 f9a5 40bd
00000150: 939f 0ebc b806 b33d befb 193c 49a5 233e
00000160: 037a 9d3e 13c4 373d 0e53 cf3b a868 c3bd
00000170: 6359 4abc 60c6 3b3e acbe 9bbc a45b 71bd
00000180: 60b1 c8bd f333 60bc 4e07 e8bb d511 403e
00000190: 9230 f1bc ce42 ec3b d36a c23b 718d 733c
000001a0: 529a 8a3d 3c86 96bc 7909 5ebd f9df 713b
000001b0: f810 e13d b4d7 8a3a 9682 abbb 5dfa 5cba
000001c0: d855 4aba 5c13 a9bd beca 083b 4ef8 86bc
000001d0: c4bf bd3d 6583 d3ba 2f15 143c 8f12 97bd
000001e0: 6d84 05bc 8662 9f3c 5a84 b13d ecfd 223e
000001f0: 9c6a 07bc ee53 623b e1ce e53d a248 dfb9
0.025500404 0.1354843 -0.009544462 -0.049790896 0.22471042 -0.049070165 0.006594603 0.00096992357
0.1433056 0.011132098 -0.001203975 -0.011278724 0.0036422515 -0.066418014 0.012299784 0.16465198
0.14660177 0.05576876 0.074422315 -0.015939124 -0.021270916 0.12348932 -0.01159644 0.030900698
-0.0038653486 -0.12202358 0.015301265 0.13668233 -0.086320676 0.005553745 0.122732505 -0.022061253
-0.010236392 -0.0038110937 -0.009168017 0.1796766 -0.016555266 -0.04134671 -0.053828157 0.07775315
0.24354059 -0.114743836 0.00776007 0.05402259 0.11352619 -0.050198168 0.012748652 -0.074863955
0.013533494 0.06971412 0.0029962761 0.12352589 0.067098506 0.09578278 0.0042875195 -0.07023114
0.03230849 0.023121977 -0.09760744 -0.00027204995 0.035535946 -0.00026116834 0.015007502 0.16486302
0.052705523 -0.10231882 0.040778212 0.10155634 -0.0068669 -0.012714167 0.016126627 0.038123865
0.05970462 0.0063435887 0.025412144 0.03426724 -0.02496434 -0.0046676197 -0.0037008002 0.0004136721
0.0058527743 -0.00772047 0.0004654513 -0.047033284 -0.008705038 0.08741516 0.009398399 0.1598102
0.3075715 0.044864725 0.0063270396 -0.09541446 -0.012350413 0.18337393 -0.019011818 -0.058925286
-0.097994566 -0.013684261 -0.007080949 0.18756802 -0.029442105 0.007210112 0.0059331446 0.014865265
0.067677155 -0.018374555 -0.054208253 0.003690718 0.10989565 0.0010592849 -0.005234073 -0.0008429641
-0.000771848 -0.08255646 0.0020872797 -0.016475823 0.09265092 -0.0016137181 0.009038254 -0.07376587
-0.008149249 0.01945616 0.08667822 0.15917176 -0.008265164 0.003453489 0.112211 -0.0004258799
