GuandanAgent/model_v1.pth (torch, 131537 bytes, 5 tensors)

fc1.weight f4 [128, 120]
00000000: b9b1 353d 31cb 69bd f6c0 0ebc a2a0 38bd
00000010: cdaa 4a3d a544 8ebd ff6c 10bd 9de9 063d
00000020: b7a5 e03b 6861 c7bd 9836 31bd 647a 6f3c
00000030: 4d0a 40bd c4bd 0ebd 5f6f 823d 0aaf 803d
00000040: 509d 943d 9eb5 7abd 75ff a1bd 422c 88bd
00000050: 4f25 b1bd 9023 163d 002d 243c 6c6a b53c
00000060: 5cf0 45bd 95c1 41bd eca7 253d a01a 43bd
00000070: 044d 293d 22fe 86bd 5f8a 1fbd 008b 89ba
00000080: 87aa 62bd 707e 1b3d 08c3 8a3d 4ac9 abbd
00000090: e02e 583c 58af 623d 2c08 85bd a8aa 483d
000000a0: d4e9 d1bc b83e 1c3c 9df6 b2bd a584 2ebd
000000b0: 2081 53bd 60f6 b1bc 75e8 8bbd 408f d03b
000000c0: a042 583d d814 763c 9795 66bd c05d ca3c
000000d0: ac46 b13c a091 523b 7868 293d d8de 4e3d
000000e0: 68b2 183d 60cf 723b 9858 d43c ec52 883d
000000f0: 4089 61bd 14bb 593d f042 e5bb a053 3e3b
00000100: f829 0b3c 4656 8cbd 102b c0bc a864 8dbd
00000110: b40b 373d fd05 53bd 70b3 be3b 5c98 8ebd
00000120: 0f54 59bd b038 aebd 4012 6d3c 2482 8dbd
00000130: 500e d4bb 5c8a 823d 81e4 38bd e8c5 153d
00000140: e612 923d f6e7 943d 6044 a3bd bc7f 433d
00000150: 656d 0dbd aed8 84bd c891 28bd d809 44bd
00000160: ef31 96bd 9af1 b53d 5850 9a3d 7c9e db3c
00000170: fe54 3cbd 24e4 54bd ec4b 79bd 0026 28b9
00000180: 0012 423a 4d10 4bbd 88cd a03c 6cdc b0bd
00000190: 2cfa a9bd da8c b03d 0065 8c39 0060 283d
000001a0: a4cb 693d fcd8 803d 588f 893c 7806 a93d
000001b0: 9cf3 cebc f4a5 af3d c033 e83c 7c60 81bc
000001c0: 64e1 d9bc c4e1 583d 3d47 a0bd 0080 7b3d
000001d0: 8f8f 7dbd a0ad 9c3c 0c68 b23d 5033 fb3c
000001e0: 7c93 e23e 63dd ddbd 3302 8ebf eee2 15bf
000001f0: 3778 10bf d9b1 7e3e 24d9 ad3d 45aa 38bf
00000200: 949f 70be 2ae1 d7ba e815 5cbe 6f4a 93be
00000210: 366a d5be 129e 1c3f 21b1 c63c c404 6fbd
00000220: 9c22 7f3d 7055 a9bb 2f03 3bbd eac5 90bd
00000230: e2f8 92bd 602c 92bc 4d1e 16bd 95b7 3fbd
00000240: 502c 3a3d c061 18bc 943a f13c 9897 453c
00000250: 3000 853d d288 febc 40fb 023c f408 4b3d
00000260: a67d 27bd ec5c 6b3d a0d3 083b 388e 63bc
00000270: 3932 20bd 5996 5abd 34b1 a3bc f056 733d
00000280: da5e 89bd bac5 9f3d b029 b53d 95a0 41bd
00000290: c29a 20bd d87d 453c 4884 f53c 3407 c53c
000002a0: 76f2 f8bc 408f e7ba f0b4 313d bbef 7abd
000002b0: fc19 74bd 5019 183c 00fb 7dbd f441 c93c
000002c0: 6be7 96bd 0028 53bb 7419 233d 84f2 b53d
000002d0: 302c a43c a095 503b 8c12 b6bc c42e aabd
000002e0: 4cee 3cbd 8cf9 1c3d 4cc8 483d 4328 20bd
000002f0: a6c7 6abd 3e82 6cbd 91c0 87bd b096 a2bb
00000300: 1a93 2ebd e4cb 3c3d 34b6 263d b8c2 9cbd
00000310: acea 383d 758c 7ebd c069 453d e717 9abd
00000320: 00a0 afbd f49d 0e3d 08a2 923d 6c46 903c
00000330: e8a8 533c 8c6d 9fbc 1413 633d 1ac3 41bd
00000340: f4a9 403d 9471 403d e088 d2bc 60f9 11bc
00000350: 5c43 bd3c f41f 3d3d 54a1 94bd ebcd 13bd
00000360: 687f b2bd 5687 993d a0f8 703d 20d9 1d3b
00000370: 6e8a b13d 2021 4c3d f83f 203d f09e 0c3c
00000380: 78c6 a63d 6841 0d3c 03f6 0ebd ffa8 54bd
00000390: 9878 e5bc 4ee1 01bd 57e7 8dbd 334c 05bd
000003a0: d9c7 2cbd f830 613d 66f1 933d dc42 63bd
000003b0: ccb2 283d f444 963d e870 08bd d8e3 4c3d
000003c0: 93fe e3bf e8bf 98bf 7aab 203f 1c28 5fbf
000003d0: 1b07 27bf c229 91be 7ba8 8ebe 9cb6 c33d
000003e0: 77dd a3bd ea04 2b3e 8e66 823d abdd 5c3e
000003f0: 0fc4 e83d 73c2 bf3e 6627 263f c039 923b
0.044358943 -0.057078544 -0.008712998 -0.045075066 0.049479295 -0.06946687 -0.035260197 0.032937635
0.0068556922 -0.09735376 -0.043264955 0.014616583 -0.046884824 -0.034848943 0.063688986 0.06283386
0.072565675 -0.06120836 -0.07910053 -0.066490665 -0.08649694 0.03665501 0.010020494 0.022145472
-0.048324928 -0.047303755 0.040443346 -0.047632813 0.041333213 -0.06591441 -0.03895032 -0.0010493696
-0.05533841 0.037962377 0.067754805 -0.08388002 0.01319477 0.055343002 -0.06495699 0.048990875
-0.025624193 0.009536438 -0.08738444 -0.04260697 -0.051636815 -0.021723926 -0.06831447 0.006364733
0.052797914 0.015019618 -0.056295004 0.024702907 0.021640144 0.0032130256 0.041359395 0.05050549
0.037279516 0.0037049875 0.025921151 0.06656441 -0.055062532 0.053156927 -0.006996505 0.0029041544
0.008493893 -0.06852393 -0.023458034 -0.06903964 0.044688895 -0.051519383 0.0058197305 -0.06962654
-0.05305868 -0.08506906 0.014469683 -0.06909588 -0.0064714327 0.06374046 -0.045139793 0.03656569
0.07132511 0.072708055 -0.07972026 0.04772924 -0.034528155 -0.06486641 -0.041154653 -0.04786095
-0.07333743 0.088839725 0.075348556 0.02680897 -0.045979492 -0.051975384 -0.06086342 -0.00016035885
0.0007403195 -0.049576093 0.019629255 -0.08635792 -0.082996696 0.08620615 0.00026778132 0.041107178
0.057078972 0.062913865 0.016791984 0.08253187 -0.025262646 0.08576575 0.028344989 -0.015793078
-0.026596732 0.052949682 -0.078260876 0.061401367 -0.061904486 0.01912576 0.087112516 0.030664116
0.44253147 -0.10833242 -1.1094421 -0.5854939 -0.56433433 0.24872531 0.08488682 -0.7213481
-0.23498374 -0.0016470302 -0.21492732 -0.28767726 -0.41682595 0.61178696 0.024254384 -0.058354154
0.062288865 -0.0051676556 -0.045657333 -0.07068999 -0.07176377 -0.017843425 -0.03664999 -0.046805937
0.045452416 -0.009300649 0.029446878 0.012060069 0.064941764 -0.0310711 0.007994473 0.049569085
-0.040891312 0.057461664 0.0020878091 -0.013888888 -0.039110396 -0.05336604 -0.019981958 0.059409082
-0.067075446 0.07801385 0.08845842 -0.047272284 -0.03921009 0.012053929 0.029970303 0.024051286
-0.030389052 -0.0017666593 0.043385446 -0.06126378 -0.059595093 0.009283379 -0.06200695 0.024567582
-0.07368358 -0.0032219887 0.039819196 0.08884147 0.020040601 0.0031827465 -0.02222564 -0.08309701
-0.046125695 0.038323924 0.049019143 -0.039100897 -0.057319306 -0.057741396 -0.06628526 -0.004961811
-0.042620756 0.046092883 0.040701106 -0.07654327 0.045145676 -0.06214567 0.048196554 -0.0752409
-0.085754395 0.034818605 0.07159811 0.017611705 0.012918688 -0.019461416 0.055438116 -0.047305204
0.04703708 0.046983317 -0.025700033 -0.008909553 0.023103409 0.04617305 -0.072573334 -0.03608505
-0.08715707 0.074965164 0.058830857 0.0024085715 0.086689815 0.049836278 0.039123505 0.0085828155
0.08143324 0.008621551 -0.034902584 -0.05191898 -0.028011605 -0.031709008 -0.0692889 -0.032543372
-0.042182777 0.05497834 0.072237775 -0.055483684 0.04118614 0.073373705 -0.0333108 0.050021976
-1.7812065 -1.1933565 0.6276165 -0.8717058 -0.6524522 -0.2835217 -0.27862915 0.09556314
-0.080012254 0.16701093 0.06367217 0.21568935 0.1136552 0.3745304 0.6490387 0.0044624507

fc1.bias f4 [128]
00000000: bb24 ecbd 5d4d bd3c bf64 01bd 4de7 6bbe
00000010: 2633 b2be c8b3 18be 4778 36bd c355 2cbe
00000020: 7a91 91bd e2bd b6be ab24 af3d cde8 053d
00000030: ac45 9dbe 90ac c83d 47b5 93be e77e 143e
00000040: 3908 c2be d40e 763e 9a36 13be f86a 63be
00000050: 5ceb 773d e77f 52be 64b3 2a3d 571b d73d
00000060: f919 cebe 1db1 113b 84d1 3fbe 2ef0 75bd
00000070: 9a04 943b ed35 85bd 13af 56bd 512d 523d
00000080: 22ce 36be 18f1 07be f8bf 8abd b646 443e
00000090: 5ccd 92bd 332a 9abb 717a 9ebd 6eb0 4bbe
000000a0: 01f2 b6bd b368 d13d 851d 99be d77e aabd
000000b0: 1446 d3bd 5d04 38bd 27f3 893d 2fe5 c5bd
000000c0: fe9e 5bbe aff0 49bd c027 18be 586e e7bd
000000d0: 6421 9c3e 9df3 04be 37ea ff3d 6676 213e
000000e0: 10da 12be 3e9e 99be c532 493e e2ab 72be
000000f0: f760 fb3d af04 1dbd f4ba d1bd b893 373e
00000100: 5fac 9d3e 62b1 5bbe 44ed 33be a131 a1be
00000110: 2866 44be e6fe 09be 064d 31be 1725 98be
00000120: 634f 8c3e fd9e 95be 2cc5 0dbe b468 dabd
00000130: f8aa aabd f257 febd 5e74 28be 7e6b a43e
00000140: cce7 76be 9e59 2bbe 4686 4fbe 2746 3cbe
00000150: fcae 05be c4b1 f1bd ef25 c1be f183 23bc
00000160: f917 4dbe cdef c93b 5246 a3bd 7e75 1dbe
00000170: 0e84 f4bd 785d e7bd 78e6 96bd 6a2f 46be
00000180: 33f8 9bbe 8c48 69bd 0c82 07be 4617 e1bd
00000190: 4571 d3be fc17 4abe 91b6 54bc 62ca efbd
000001a0: 8926 7bbe e90a 47be fce6 c13d 3e35 40be
000001b0: 1481 88be 9b9e 043e 4322 cfbd 678b 84be
000001c0: c4f5 af3e 496d a0be be29 d43c a483 573d
000001d0: 695e a13d f07b b13e 247a 62be 3ff7 ccbc
000001e0: 4812 6b3c cb1a cfbd e6ef c1bd b466 a23d
000001f0: eabc 88be c896 a4be 5fdd 373e 93b1 9ebe
-0.11530443 0.023108179 -0.03159022 -0.23037453 -0.34804648 -0.14912331 -0.0445483 -0.1682959
-0.071078256 -0.35691744 0.08551916 0.03269272 -0.30717218 0.09798539 -0.2884924 0.14501534
-0.37896898 0.24029094 -0.14376298 -0.22208774 0.06052719 -0.20556603 0.041674986 0.105032615
-0.4025419 0.0022230812 -0.18732268 -0.060043506 0.00451715 -0.06504426 -0.052413058 0.05131275
-0.17852071 -0.13275564 -0.067748964 0.19167599 -0.071680754 -0.0047047376 -0.077381976 -0.19891521
-0.08932877 0.10225048 -0.29905334 -0.08324974 -0.10316101 -0.044926036 0.06735831 -0.09662854
-0.2144737 -0.0493018 -0.14858913 -0.11300343 0.30494225 -0.12983556 0.12495845 0.15767822
-0.14340997 -0.30003542 0.19648273 -0.2369838 0.12274354 -0.038334545 -0.102407366 0.17927444
0.3079557 -0.21454385 -0.17570978 -0.31483176 -0.19179595 -0.13476142 -0.17314538 -0.29715797
0.27404317 -0.2922286 -0.13844746 -0.10664502 -0.08333391 -0.12419118 -0.1645064 0.3211326
-0.24111861 -0.16733405 -0.20266065 -0.18386136 -0.13055032 -0.11801484 -0.37724254 -0.009980188
-0.20028676 0.0061626197 -0.07972397 -0.15376851 -0.1193925 -0.112971246 -0.07368177 -0.19354025
-0.30462798 -0.05695395 -0.13233203 -0.10990767 -0.41297355 -0.19735712 -0.01298298 -0.11708523
-0.24526419 -0.19437756 0.09467885 -0.1877031 -0.2666098 0.12951128 -0.10113957 -0.25887606
0.34367192 -0.31333378 0.02589881 0.052615777 0.078793354 0.3466487 -0.22116905 -0.02502024
0.01434762 -0.10112532 -0.09469585 0.07929745 -0.2670663 -0.32146287 0.1795554 -0.30994853

fc2.weight f4 [128, 128]
00000000: d84e a1bd 52eb 81bd 738f 883c c2aa 0f3d
00000010: da7e 49bc 3cf8 6dbc 6c95 6b3c 45ae b4bd
00000020: 8072 a03d c70e 09bd a2d8 663d 8620 313d
00000030: 14f7 d7ba d805 a1bd 9d19 413d a3aa 943c
00000040: 85a9 9fbd c35c b13c 08a6 76bd e220 82bd
00000050: b711 cbbc 6f59 15bd be06 bdbc da02 42bd
00000060: f6b2 7f3d 9a9c e9bc 6f8a 543a e267 84bd
00000070: 4fc3 e5bc 9966 4dbd 82ac 3bbd df42 aabd
00000080: 37b4 2f3d d162 57bd 93cf a8bd 5dc8 d1bc
00000090: 1370 4b3d 88ce 823c a076 d33c 6029 b43c
000000a0: cff4 e7bd 5b68 273c 1bc0 a03d 35ff 52bd
000000b0: 1335 203c 4f02 0ebc da40 92bd 9c10 4f3d
000000c0: 6281 0a3d 6b61 acbd d917 883c fa98 31bc
000000d0: 7bd6 48bd 7a36 813d 89a5 04be 1f55 27bb
000000e0: cabc 583c 953e 2b3d e70d a83d 36dc d8bd
000000f0: 281a f2bd 8951 66bd 4eb6 08bd e4a9 313d
00000100: ebc3 52bd 136c 633d d487 9cbd b24f e43c
00000110: 11f1 03bc fa05 9bbd e733 ccbd 5111 8dbd
00000120: 452f 5d3d ca96 893b 4cf4 77bd d99b 5fbd
00000130: de5d 07bd 6e9b b2bc d39b c73c 869a 883d
00000140: 51fc 353d 5b66 55bd 4f3b 79bc 0ade 7b3d
00000150: f9a6 f4bd d8dc d53c 9546 4a3d 077f 643c
00000160: 870b bbbc 5985 b9bd 4ad8 363d fed8 403d
00000170: 283e f3bc 3053 903c 52b6 96bd 2cc8 59bd
00000180: 4229 73bd af06 b2bd 03ba fdbd bc89 513d
00000190: e608 5dbd 184a 7fbc 2a05 b7bc d2ee adbd
000001a0: 9cec 16bd a0de da3b be7c 43bd bffc cbbd
000001b0: 4e95 00bd 74a8 443c 783e 34bc 7688 e3bc
000001c0: ab2e 57bd a332 a7bd cef9 1e3d c9ab d1bd
000001d0: 1872 27bd 3044 63bd 3279 153d 387c 793d
000001e0: 3922 75bd e846 adbc 6e32 bebd bc2d 9cbc
000001f0: d7d2 703d 73dd 88bc 8d60 413d 6c51 23bd
00000200: bb5c ae3d 7128 a9bd 4664 103f 7f13 d73e
00000210: 27f5 163e 4af1 38bd f7d0 08bf d5ba fdbe
00000220: b711 c0bd 7e2e 8c3e 8a4c 683e 62da 3d3f
00000230: a940 0d3f fd13 5c3f 24f4 ca3d ef78 ea3e
00000240: 053f 0f3e f881 5e3e f406 abbe db0c 813e
00000250: 9a16 cc3e c70c 18be 4c14 2dbf e75d dd3e
00000260: ee50 9ebe 2780 01be a0f1 e8be 76fe 123e
00000270: c099 dfbe 912f a4bb eb49 f53e ce47 13be
00000280: ce18 4dbf 99c2 ccbd e187 1f3c ab42 e6be
00000290: cc55 af3e f49b babe 71a2 a7be b3fb cdbe
000002a0: 4728 ba3e a032 d3be 9f8f 843e e4ea 0cbf
000002b0: 8644 e8bc 5c96 89bd c425 4dbf 4530 a7bc
000002c0: 4c8e 183d 94a2 fa3e d49e 5f3f 6660 f5be
000002d0: 6629 afbf 1d5e 2a3f b7cf 343d 4acf b83e
000002e0: bfe5 a23d ab78 83be 8dcb 033f 7721 d8be
000002f0: e3d4 8fbe 3041 e6bb ce62 013d c200 9abe
00000300: 6368 3ebd d99f 8dbe 808b 243f 9d87 4f3e
00000310: 2a14 733f 4545 adbc 6842 b43e 78db f63e
00000320: 99b8 fcbc 220f 02be 59cb 913b 6054 bcbe
00000330: fb63 15bf a12f 573e 63eb 8abd 4ae7 b9be
00000340: 43ae 9abd a686 c5be f74e cc3e f8f3 e53e
00000350: b546 fdbd d084 203c 78c4 fc3e 3b13 883e
00000360: d0c8 18be d9ec a1be debc 863d 21c7 a73e
00000370: dbbe 13be 05d2 adbe 176a 27bf 8d47 9e3d
00000380: 4cab f63d fc7e d2be 0364 8fbe 5431 24bc
00000390: 0edb aebd a248 b63d b393 04bf 5af7 8ebd
000003a0: 19fb 5b3d dec4 26bd cace 1ebf c4e0 12bd
000003b0: 8190 273f ece2 bbbd 0ac0 d33c f73b 0abd
000003c0: abc0 59bf 8fbb ce3e 58f8 e4be cd7d 90bd
000003d0: 9abf 7fbe 1892 cfbe 9a96 50bd 2ea1 103e
000003e0: 525e 8ebe 0b3b 5b3d 3164 f6bc 9fc3 24bf
000003f0: 46b2 d73d d01a 0c3f f2b1 2b3f 455f 04bf
-0.078763664 -0.06343712 0.016669964 0.035074957 -0.01229831 -0.014524516 0.014378887 -0.08822302
0.07834339 -0.03346136 0.05635894 0.043243907 -0.0016476833 -0.07862443 0.047143567 0.018147772
-0.07796005 0.021650678 -0.060216933 -0.06353928 -0.02478872 -0.036462244 -0.023074504 -0.047366
0.06242653 -0.028517056 0.00081077864 -0.064651266 -0.028047232 -0.050146673 -0.045818813 -0.08313536
0.042896476 -0.052584473 -0.08242717 -0.025608236 0.04966743 0.015967622 0.0258134 0.021992385
-0.113259904 0.010217751 0.07849141 -0.051512916 0.009778279 -0.008667543 -0.07141276 0.05055295
0.033814795 -0.084170185 0.016612934 -0.010839695 -0.04903267 0.06309219 -0.12953772 -0.0025532914
0.013228605 0.04180773 0.08205777 -0.10588877 -0.11821395 -0.0562301 -0.033376984 0.04337491
-0.051456373 0.05552299 -0.07643095 0.027870033 -0.00805308 -0.07569499 -0.09970837 -0.068880685
0.054000158 0.0041988837 -0.060535714 -0.054591987 -0.033048503 -0.02180263 0.024366295 0.06670098
0.04443008 -0.052099567 -0.015211894 0.06149105 -0.1194591 0.026106283 0.04938372 0.013946301
-0.022832645 -0.09058637 0.044639863 0.04708194 -0.029692724 0.017617792 -0.073589936 -0.053169414
-0.05936552 -0.08692681 -0.123889945 0.051156744 -0.053963564 -0.01558163 -0.02234133 -0.08492817
-0.036846742 0.006679371 -0.047726385 -0.09960317 -0.031392388 0.012003053 -0.011001222 -0.02777503
-0.05253474 -0.08163955 0.03881245 -0.102378435 -0.040880293 -0.05548495 0.036492534 0.06090948
-0.05984709 -0.021151975 -0.092869624 -0.019064777 0.058794823 -0.016707158 0.04721122 -0.03987257
0.08513781 -0.08259667 0.56403005 0.42007062 0.14741956 -0.045151986 -0.53443855 -0.49556604
-0.09378379 0.2737922 0.22685447 0.7416135 0.5517679 0.85968 0.099098474 0.4579539
0.13988884 0.21729267 -0.33403742 0.2520512 0.39860994 -0.14848624 -0.67609096 0.43235704
-0.3092112 -0.12646542 -0.45496845 0.14354882 -0.4367199 -0.005010553 0.47907957 -0.1438286
-0.80115974 -0.09998054 0.009736986 -0.4497274 0.34245145 -0.36447108 -0.3274112 -0.40231094
0.36358854 -0.4124956 0.25890824 -0.55045915 -0.028352987 -0.06718132 -0.8013575 -0.020408759
0.03724508 0.48952162 0.8735173 -0.4792511 -1.3684509 0.66549855 0.044143405 0.3609565
0.07953977 -0.25678 0.5148247 -0.42213032 -0.28092107 -0.007026814 0.031588368 -0.30078703
-0.04648627 -0.27661017 0.6427536 0.20266576 0.9495264 -0.021151194 0.35206914 0.48214316
-0.030849742 -0.12701085 0.0044492898 -0.36783123 -0.58355683 0.21014263 -0.06783178 -0.36309272
-0.07552769 -0.3857929 0.39903995 0.44912696 -0.12367002 0.00979729 0.49368644 0.26577172
-0.14920354 -0.31626013 0.06578992 0.3276911 -0.14428274 -0.33949295 -0.65396255 0.07728491
0.12044391 -0.41112506 -0.2800599 -0.010021526 -0.08537875 0.08900572 -0.5178787 -0.06980772
0.053706262 -0.04071509 -0.62034285 -0.035858884 0.6545487 -0.09174141 0.025848407 -0.033748593
-0.85059613 0.4037747 -0.4472072 -0.070552446 -0.24975434 -0.40541148 -0.050924875 0.14123985
-0.27806336 0.053523105 -0.030077072 -0.64360994 0.1053205 0.5472841 0.670684 -0.5170787

fc2.bias f4 [128]
00000000: 5fb5 1bbe c250 323d 952c 9cbe 657d 0cbe
00000010: 205d d2bd 6649 f9be 44c9 90be a3d4 4abe
00000020: 532e bfbe 0c98 2cbe 6ae2 133d c318 d6bd
00000030: 9751 22be 21e0 49bd dca8 f6bd efc1 f3be
00000040: dd5c 74be 6971 44be 40f7 ebbe a465 fdbd
00000050: 9458 d0bd 1ff8 c2be 1ae9 46be 8451 4fbc
00000060: 4a2a 07be 01ac 74be 7bc0 3abe fba8 97be
00000070: ce85 32be ba03 8ebe ed29 ebbe 3946 11be
00000080: 3485 1dbe 57a0 4bbe 3a04 2c3e fe0c c5bd
00000090: 6022 8bbe 218b a1be d830 0bbe cb87 81bd
000000a0: 552b 03bf b420 2bbe d85c 1ebe c797 19be
000000b0: 3e6f f2be 9a48 003d cfb8 a3be b0d0 3fbe
000000c0: f9d0 47be 4bcb 42be 731f 3ebd df80 abbe
000000d0: 5272 c7be 9b41 03bf c194 a2bd b085 22be
000000e0: d716 30bd d6f6 35be 1380 73bd df15 d1be
000000f0: 4731 f6bd d7cc 8ebe 5626 503e 26b8 08bf
00000100: e215 36be 5778 8dbe 3a51 ee3c 3459 36bd
00000110: 043c 39be fdd2 2abf 315b 8ebd 20ab e3bd
00000120: ddf4 22bd b25a 92be ae49 fe3c c1b7 17be
00000130: e7ee 18be 4f5a 06bd b97b 54bd 4a3d cabd
00000140: c2c4 f8be 4f4d 2ebf 96eb a9bc ad36 19be
00000150: e875 50be a8d1 1cbf e1ef d7be 463b 50be
00000160: 97da a2be f63e 85be 5eb0 2d3e 3364 2cbd
00000170: 55af 9cbd 8ff3 14bf e61f b4bd 158b 71bd
00000180: 05a8 8ebe 8a73 97bd 8a2d dfbd c3d0 dcbe
00000190: c4e4 acbe 5550 c4bd c5bf 713d 2edf 70be
000001a0: bf2c a7bd 5d44 3bbe 0230 e0bd 797d d3bd
000001b0: 0ab8 19bf b995 3cbe d0d1 95be 4f3a 31bd
000001c0: 167e d7be 3bc4 93be 43cf 07be 15f0 f73c
000001d0: 2dd6 c9bd 05ee e43e 98d1 22be aadf 3e3d
000001e0: 1e37 253d 7bc3 8abe 0de3 f6be 32ec 04bf
000001f0: 8d7a 22be 6149 663d 4b5d ccbe 18e9 ccbe
-0.15205906 0.043534048 -0.30502763 -0.13719709 -0.102716684 -0.4868881 -0.28278553 -0.19807677
-0.3734003 -0.16854876 0.036104597 -0.10453942 -0.15851437 -0.04928601 -0.12043926 -0.47608897
-0.2386355 -0.19183888 -0.46087074 -0.12372902 -0.10173145 -0.38079926 -0.19424859 -0.012653712
-0.13199726 -0.2389374 -0.18237488 -0.2962111 -0.17433855 -0.27737218 -0.45930424 -0.14186944
-0.15382844 -0.19885384 0.16798487 -0.09621619 -0.27174664 -0.3155146 -0.13592851 -0.063247286
-0.51237994 -0.16711694 -0.15465105 -0.14999305 -0.47350496 0.03131924 -0.31976935 -0.18731952
-0.1951331 -0.19022863 -0.04641671 -0.33496758 -0.38954407 -0.5127198 -0.07938529 -0.1587131
-0.04299053 -0.17769942 -0.059448313 -0.40837 -0.12021118 -0.27890655 0.20327124 -0.5340599
-0.17781785 -0.27630875 0.029091466 -0.044518664 -0.180893 -0.6672819 -0.06950987 -0.11116624
-0.0397843 -0.2858482 0.031040993 -0.1481619 -0.14934884 -0.03280097 -0.051875804 -0.09874971
-0.48587614 -0.68086714 -0.020742219 -0.14962263 -0.20357478 -0.6125741 -0.421752 -0.20335111
-0.31807396 -0.26024598 0.1696181 -0.042087745 -0.076506294 -0.5818414 -0.08795147 -0.05897053
-0.27862564 -0.07395084 -0.10897358 -0.43128023 -0.33768284 -0.095856346 0.059020776 -0.23522636
-0.081628315 -0.18287797 -0.10946657 -0.103266664 -0.60046446 -0.1841649 -0.29261637 -0.043268498
-0.42088383 -0.2886065 -0.13262658 0.030265847 -0.09855304 0.44712844 -0.15900266 0.04660002
0.040335767 -0.27102265 -0.482201 -0.51922905 -0.15867062 0.056222323 -0.39914927 -0.40021586

fc3.weight f4 [1, 128]
00000000: 530d 48bc 42b8 0a3e fbe1 e43e 8f36 8abc
00000010: 7935 243e c448 263d e49c 4e3d 774f 0a3d
00000020: 7f85 413d 32cc afbd 78ae 423e 5367 97be
00000030: ae62 033e d7d7 1bbf 8364 8e3d 3020 bc3d
00000040: 78a8 94be 5987 983e ef7c babc 06c3 803c
00000050: 39c8 f03d b1a2 84bc 8bfb 523e b97e e5be
00000060: 55e2 6dbc d9b6 333d 3436 033d 432a 8c3e
00000070: 25de e2bd 4c67 c43e 6bfe 1f3d c57d 863e
00000080: 75c5 973d 5a4a 9bbe e6ee 84be 5d28 9f3e
00000090: 3ace 403e 2d87 19be a6ef a53e bfb2 993d
000000a0: f54c 1c3d a38b 133d 19c0 bf3d 9c13 023c
000000b0: dbc4 7e3d 1a7b 4d3e 055e 383d 6d97 4b3e
000000c0: 5c45 02be 0482 903d c901 8dbc 9cd4 503c
000000d0: 6da0 373d 89a5 4e3e 44e6 78bd 22c8 ed3d
000000e0: bd8c 2b3d d3db 55be 8827 c7bd 71a5 ebbd
000000f0: 3161 c43b c7ee 413e e60b d73c 22eb 8b3e
00000100: 1976 85bd dafa 383d 3f5a 8abe 35ac 8f3e
00000110: 4c24 82be b700 813d a159 8b3e 1d2a bbba
00000120: ac54 debd 0993 573e 24d9 373c 980f 9c3e
00000130: bff6 833c 070e eebc 5b67 dfbe a7c6 5dbd
00000140: 6be1 273d a0fc 8d3d 934b b93d ac2f debb
00000150: fc04 24be 3c38 98be f5ad 40bd c544 7fbe
00000160: c291 d43d 48bd 143e 35f3 513d 2c8a 103d
00000170: 7a54 b8bd 938c 053d badb 91bb c80c b53d
00000180: 628f 57bd e780 333c ff4f 80bb c9e7 a93d
00000190: 4781 0abe 9923 8ebb 7eaa 52be 5f25 6abd
000001a0: 3484 1c3d b8fd f0bc 3f3d cf3d 9b14 2e3c
000001b0: b698 cc3d 4e32 c43d 2732 4d3e 0131 fb3c
000001c0: 0376 0ebe e125 fc3d e609 1b3d 95cb 5fbe
000001d0: 5c6e 293e cb80 0fbe f33e 36be a6b6 1a3e
000001e0: 8266 68bd 803b 6b3e 86a0 663e b53c e7bc
000001f0: 9127 13be d83b eebd 00c9 fb3e c0f3 d03e
-0.012210208 0.13546851 0.4470366 -0.016871719 0.16036023 0.04059674 0.05044259 0.03376719
0.047246452 -0.08583869 0.19011867 -0.29571018 0.12830612 -0.6087622 0.06952765 0.09185827
-0.2903478 0.29790762 -0.022764651 0.015717994 0.117569394 -0.016190859 0.20603769 -0.44823244
-0.014519294 0.04387555 0.032034114 0.27375993 -0.11077527 0.3836006 0.03906099 0.2626783
0.07410709 -0.30330163 -0.25963515 0.31085482 0.18828669 -0.14992972 0.324094 0.07504796
0.03815933 0.03602184 0.093628116 0.007939246 0.062199455 0.20066491 0.04501154 0.19881983
-0.12721771 0.070560485 -0.017212765 0.0127460025 0.04483073 0.20180334 -0.060766473 0.11610438
0.041882265 -0.20884638 -0.09724337 -0.11506165 0.0059930314 0.18938743 0.02625079 0.2732783
-0.06516666 0.045161106 -0.27021977 0.2806107 -0.25418317 0.062989645 0.2721682 -0.0014279519
-0.10855994 0.21052183 0.011221204 0.30480647 0.016108869 -0.029059423 -0.4363354 -0.054144528
0.04098646 0.0693295 0.09047618 -0.0067805853 -0.16017526 -0.29730403 -0.0470409 -0.24928577
0.103793636 0.1452533 0.05125733 0.03528802 -0.090004876 0.032604765 -0.0044512423 0.088403285
-0.052626975 0.010956026 -0.0039157863 0.08296163 -0.13525878 -0.0043377397 -0.2057285 -0.057164546
0.038212016 -0.029417858 0.10119104 0.01062503 0.09990065 0.09579907 0.20038663 0.030663015
-0.13912205 0.12311912 0.037851237 -0.21855004 0.16546005 -0.14013974 -0.1779745 0.15108737
-0.056738384 0.22971916 0.22522172 -0.02822719 -0.14370562 -0.11632508 0.49176788 0.40810966
