GuandanAgent/model_v1.pth (torch, 131537 bytes, 5 tensors)

fc1.weight f4 [128, 120]
000000 b9 b1 35 3d 31 cb 69 bd f6 c0 0e bc a2 a0 38 bd
       0.044358943 -0.057078544 -0.008712998 -0.045075066
000010 cd aa 4a 3d a5 44 8e bd ff 6c 10 bd 9d e9 06 3d
       0.049479295 -0.06946687 -0.035260197 0.032937635
000020 b7 a5 e0 3b 68 61 c7 bd 98 36 31 bd 64 7a 6f 3c
       0.0068556922 -0.09735376 -0.043264955 0.014616583
000030 4d 0a 40 bd c4 bd 0e bd 5f 6f 82 3d 0a af 80 3d
       -0.046884824 -0.034848943 0.063688986 0.06283386
000040 50 9d 94 3d 9e b5 7a bd 75 ff a1 bd 42 2c 88 bd
       0.072565675 -0.06120836 -0.07910053 -0.066490665
000050 4f 25 b1 bd 90 23 16 3d 00 2d 24 3c 6c 6a b5 3c
       -0.08649694 0.03665501 0.010020494 0.022145472
000060 5c f0 45 bd 95 c1 41 bd ec a7 25 3d a0 1a 43 bd
       -0.048324928 -0.047303755 0.040443346 -0.047632813
000070 04 4d 29 3d 22 fe 86 bd 5f 8a 1f bd 00 8b 89 ba
       0.041333213 -0.06591441 -0.03895032 -0.0010493696
000080 87 aa 62 bd 70 7e 1b 3d 08 c3 8a 3d 4a c9 ab bd
       -0.05533841 0.037962377 0.067754805 -0.08388002
000090 e0 2e 58 3c 58 af 62 3d 2c 08 85 bd a8 aa 48 3d
       0.01319477 0.055343002 -0.06495699 0.048990875
0000a0 d4 e9 d1 bc b8 3e 1c 3c 9d f6 b2 bd a5 84 2e bd
       -0.025624193 0.009536438 -0.08738444 -0.04260697
0000b0 20 81 53 bd 60 f6 b1 bc 75 e8 8b bd 40 8f d0 3b
       -0.051636815 -0.021723926 -0.06831447 0.006364733
0000c0 a0 42 58 3d d8 14 76 3c 97 95 66 bd c0 5d ca 3c
       0.052797914 0.015019618 -0.056295004 0.024702907
0000d0 ac 46 b1 3c a0 91 52 3b 78 68 29 3d d8 de 4e 3d
       0.021640144 0.0032130256 0.041359395 0.05050549
0000e0 68 b2 18 3d 60 cf 72 3b 98 58 d4 3c ec 52 88 3d
       0.037279516 0.0037049875 0.025921151 0.06656441
0000f0 40 89 61 bd 14 bb 59 3d f0 42 e5 bb a0 53 3e 3b
       -0.055062532 0.053156927 -0.006996505 0.0029041544
000100 f8 29 0b 3c 46 56 8c bd 10 2b c0 bc a8 64 8d bd
       0.008493893 -0.06852393 -0.023458034 -0.06903964
000110 b4 0b 37 3d fd 05 53 bd 70 b3 be 3b 5c 98 8e bd
       0.044688895 -0.051519383 0.0058197305 -0.06962654
000120 0f 54 59 bd b0 38 ae bd 40 12 6d 3c 24 82 8d bd
       -0.05305868 -0.08506906 0.014469683 -0.06909588
000130 50 0e d4 bb 5c 8a 82 3d 81 e4 38 bd e8 c5 15 3d
       -0.0064714327 0.06374046 -0.045139793 0.03656569
000140 e6 12 92 3d f6 e7 94 3d 60 44 a3 bd bc 7f 43 3d
       0.07132511 0.072708055 -0.07972026 0.04772924
000150 65 6d 0d bd ae d8 84 bd c8 91 28 bd d8 09 44 bd
       -0.034528155 -0.06486641 -0.041154653 -0.04786095
000160 ef 31 96 bd 9a f1 b5 3d 58 50 9a 3d 7c 9e db 3c
       -0.07333743 0.088839725 0.075348556 0.02680897
000170 fe 54 3c bd 24 e4 54 bd ec 4b 79 bd 00 26 28 b9
       -0.045979492 -0.051975384 -0.06086342 -0.00016035885
000180 00 12 42 3a 4d 10 4b bd 88 cd a0 3c 6c dc b0 bd
       0.0007403195 -0.049576093 0.019629255 -0.08635792
000190 2c fa a9 bd da 8c b0 3d 00 65 8c 39 00 60 28 3d
       -0.082996696 0.08620615 0.00026778132 0.041107178
0001a0 a4 cb 69 3d fc d8 80 3d 58 8f 89 3c 78 06 a9 3d
       0.057078972 0.062913865 0.016791984 0.08253187
0001b0 9c f3 ce bc f4 a5 af 3d c0 33 e8 3c 7c 60 81 bc
       -0.025262646 0.08576575 0.028344989 -0.015793078
0001c0 64 e1 d9 bc c4 e1 58 3d 3d 47 a0 bd 00 80 7b 3d
       -0.026596732 0.052949682 -0.078260876 0.061401367
0001d0 8f 8f 7d bd a0 ad 9c 3c 0c 68 b2 3d 50 33 fb 3c
       -0.061904486 0.01912576 0.087112516 0.030664116
0001e0 3a b0 39 3e 50 53 84 3e 5f 19 49 bf a1 66 95 be
       0.18133631 0.25844812 -0.7855434 -0.29179862
0001f0 80 ef 1b 3e 9a 8c e3 ba 03 30 53 3e cf cd cf be
       0.15228081 -0.0017360628 0.20623784 -0.40586707
000200 41 45 1c be e8 c8 b9 be ad d8 d5 bd dc a0 4e bd
       -0.15260793 -0.36286092 -0.10441718 -0.050446376
000210 29 7b c7 be cb c2 29 3e ee 68 2f be c4 04 6f bd
       -0.3896115 0.16578214 -0.17129871 -0.058354154
000220 9c 22 7f 3d 70 55 a9 bb 2f 03 3b bd ea c5 90 bd
       0.062288865 -0.0051676556 -0.045657333 -0.07068999
000230 e2 f8 92 bd 60 2c 92 bc 4d 1e 16 bd 95 b7 3f bd
       -0.07176377 -0.017843425 -0.03664999 -0.046805937
000240 50 2c 3a 3d c0 61 18 bc 94 3a f1 3c 98 97 45 3c
       0.045452416 -0.009300649 0.029446878 0.012060069
000250 30 00 85 3d d2 88 fe bc 40 fb 02 3c f4 08 4b 3d
       0.064941764 -0.0310711 0.007994473 0.049569085
000260 a6 7d 27 bd ec 5c 6b 3d a0 d3 08 3b 38 8e 63 bc
       -0.040891312 0.057461664 0.0020878091 -0.013888888
000270 39 32 20 bd 59 96 5a bd 34 b1 a3 bc f0 56 73 3d
       -0.039110396 -0.05336604 -0.019981958 0.059409082
000280 da 5e 89 bd ba c5 9f 3d b0 29 b5 3d 95 a0 41 bd
       -0.067075446 0.07801385 0.08845842 -0.047272284
000290 c2 9a 20 bd d8 7d 45 3c 48 84 f5 3c 34 07 c5 3c
       -0.03921009 0.012053929 0.029970303 0.024051286
0002a0 76 f2 f8 bc 40 8f e7 ba f0 b4 31 3d bb ef 7a bd
       -0.030389052 -0.0017666593 0.043385446 -0.06126378
0002b0 fc 19 74 bd 50 19 18 3c 00 fb 7d bd f4 41 c9 3c
       -0.059595093 0.009283379 -0.06200695 0.024567582
0002c0 6b e7 96 bd 00 28 53 bb 74 19 23 3d 84 f2 b5 3d
       -0.07368358 -0.0032219887 0.039819196 0.08884147
0002d0 30 2c a4 3c a0 95 50 3b 8c 12 b6 bc c4 2e aa bd
       0.020040601 0.0031827465 -0.02222564 -0.08309701
0002e0 4c ee 3c bd 8c f9 1c 3d 4c c8 48 3d 43 28 20 bd
       -0.046125695 0.038323924 0.049019143 -0.039100897
0002f0 a6 c7 6a bd 3e 82 6c bd 91 c0 87 bd b0 96 a2 bb
       -0.057319306 -0.057741396 -0.06628526 -0.004961811
000300 1a 93 2e bd e4 cb 3c 3d 34 b6 26 3d b8 c2 9c bd
       -0.042620756 0.046092883 0.040701106 -0.07654327
000310 ac ea 38 3d 75 8c 7e bd c0 69 45 3d e7 17 9a bd
       0.045145676 -0.06214567 0.048196554 -0.0752409
000320 00 a0 af bd f4 9d 0e 3d 08 a2 92 3d 6c 46 90 3c
       -0.085754395 0.034818605 0.07159811 0.017611705
000330 e8 a8 53 3c 8c 6d 9f bc 14 13 63 3d 1a c3 41 bd
       0.012918688 -0.019461416 0.055438116 -0.047305204
000340 f4 a9 40 3d 94 71 40 3d e0 88 d2 bc 60 f9 11 bc
       0.04703708 0.046983317 -0.025700033 -0.008909553
000350 5c 43 bd 3c f4 1f 3d 3d 54 a1 94 bd eb cd 13 bd
       0.023103409 0.04617305 -0.072573334 -0.03608505
000360 68 7f b2 bd 56 87 99 3d a0 f8 70 3d 20 d9 1d 3b
       -0.08715707 0.074965164 0.058830857 0.0024085715
000370 6e 8a b1 3d 20 21 4c 3d f8 3f 20 3d f0 9e 0c 3c
       0.086689815 0.049836278 0.039123505 0.0085828155
000380 78 c6 a6 3d 68 41 0d 3c 03 f6 0e bd ff a8 54 bd
       0.08143324 0.008621551 -0.034902584 -0.05191898
000390 98 78 e5 bc 4e e1 01 bd 57 e7 8d bd 33 4c 05 bd
       -0.028011605 -0.031709008 -0.0692889 -0.032543372
0003a0 d9 c7 2c bd f8 30 61 3d 66 f1 93 3d dc 42 63 bd
       -0.042182777 0.05497834 0.072237775 -0.055483684
0003b0 cc b2 28 3d f4 44 96 3d e8 70 08 bd d8 e3 4c 3d
       0.04118614 0.073373705 -0.0333108 0.050021976
0003c0 3f 63 01 bf 8e c2 06 bf 48 42 06 3f fa 49 de be
       -0.5054206 -0.52640617 0.5244489 -0.43415815
0003d0 d1 0d 29 bf 05 b4 36 be fc 5c 3c be b3 94 c9 3e
       -0.6603671 -0.1784211 -0.18394846 0.3937126
0003e0 87 3a 04 3b ae a7 19 be 9e 7f 2c be 1b 6c a7 bd
       0.0020176487 -0.15005371 -0.16845557 -0.08174916
0003f0 bd c8 22 3e 61 13 c1 3e 25 1b 9e 3e c0 39 92 3b
       0.15896888 0.37710097 0.30880085 0.0044624507

fc1.bias f4 [128]
000000 bb 24 ec bd 47 e6 91 3d dc 9a 7f 3d 30 44 4f be
       -0.11530443 0.07124 0.062403545 -0.20240855
000010 d6 a6 81 be 02 29 54 bd b4 28 ef bc d0 20 fd bd
       -0.25322598 -0.05179692 -0.029194213 -0.12359774
000020 5c 84 0e bc eb af 81 be 9e 29 80 be 9d c0 76 3c
       -0.008698549 -0.25329527 -0.2503175 0.015060571
000030 0e d9 13 be ae 77 1e 3e ec 55 8c bd 4a b1 78 3e
       -0.14438269 0.15475342 -0.06852326 0.2428638
000040 87 18 80 be ec 00 4a 3e 00 fe ac 3d 5f f5 49 be
       -0.25018713 0.19726914 0.08446884 -0.19722508
000050 7e 93 4a 3c b3 7a 75 be 68 59 6a bc 2c 6b 01 be
       0.012364266 -0.23972587 -0.014303543 -0.12638539
000060 78 4f d4 bd e8 a6 99 bd 58 2f 19 be 2b 9c f2 3c
       -0.1036672 -0.07502538 -0.14959466 0.029615482
000070 dc 88 14 3e ed 35 85 bd 35 48 43 be 8a 8f d6 bd
       0.14505333 -0.06504426 -0.19070514 -0.10476597
000080 9d 50 c9 bd 18 f1 07 be f8 bf 8a bd ef 13 10 3e
       -0.09829829 -0.13275564 -0.067748964 0.14070104
000090 8c 55 1b be ab 1e 64 bd 44 1f 8f 3b d4 52 23 3d
       -0.15169352 -0.05569331 0.004367741 0.039873913
0000a0 49 29 00 3b b1 ae 33 3e b3 25 5e be 79 67 c0 bd
       0.0019555858 0.17547108 -0.21694069 -0.09394736
0000b0 14 46 d3 bd 5d 04 38 bd 26 56 1a 3e 2f e5 c5 bd
       -0.10316101 -0.044926036 0.15071926 -0.09662854
0000c0 68 13 57 bb b2 ae 30 ba cb e0 0b be 2c fb 0f 3e
       -0.0032817964 -0.0006739899 -0.1365997 0.14060658
0000d0 27 84 69 3e db 26 42 be dc d9 b4 bd 1c 2e 62 3d
       0.22804318 -0.18960135 -0.08830616 0.055219755
0000e0 10 da 12 be 4e 42 e8 3b 7f 0a ae 3c 7b 41 90 be
       -0.14340997 0.0070879823 0.02124524 -0.28174958
0000f0 e7 37 27 3e f0 07 d3 bd f4 ba d1 bd 18 54 5b 3e
       0.16329919 -0.10304248 -0.102407366 0.21418798
000100 19 9a 27 be 93 62 2d bd 64 61 91 bd 3d 2f 22 3d
       -0.16367377 -0.042330336 -0.07098654 0.03959583
000110 be ee f4 bd e6 fe 09 be be 8b 8b be 04 3a 51 bd
       -0.11959599 -0.13476142 -0.27255052 -0.05108072
000120 41 a6 76 3d 15 bc cb bd d2 b6 e1 3d 6e 27 4d bd
       0.060217146 -0.09947983 0.11021198 -0.05008643
000130 66 e3 d7 bc a6 f6 78 3c 5e 74 28 be c5 b9 37 3e
       -0.02635355 0.015195524 -0.1645064 0.17941959
000140 2f f8 11 be fe 53 b5 bd 22 55 be bd 91 b5 67 3c
       -0.14254831 -0.08853911 -0.092935815 0.01414241
000150 6f 1f f5 bd c4 b1 f1 bd 2a 01 7d be ea 1e de bb
       -0.11968886 -0.11801484 -0.24707475 -0.0067785876
000160 f9 17 4d be 7b 91 bd bd 52 46 a3 bd 62 2a 18 3e
       -0.20028676 -0.09256264 -0.07972397 0.14859918
000170 0e 84 f4 bd 27 4f b1 3b 66 38 af 3c cd 50 47 bd
       -0.1193925 0.005411047 0.021389198 -0.048661042
000180 fa 39 13 be 1c e1 9f 3c 99 13 02 be 46 17 e1 bd
       -0.14377585 0.01951652 -0.12702788 -0.10990767
000190 d7 fd 9d be 55 1c fc 3b 28 e7 e6 bd a1 c3 ae bd
       -0.30857727 0.007693807 -0.11274558 -0.08533407
0001a0 bf 19 95 bd 45 b3 a6 bd 04 73 99 3d fa de 20 be
       -0.07280301 -0.08139662 0.074926406 -0.15710059
0001b0 fb 25 8e be 7e 20 97 3e 43 22 cf bd 5a 7b 05 be
       -0.27763352 0.29516977 -0.10113957 -0.13035336
0001c0 0e 63 9d 3d c0 d2 95 be c7 23 a6 bd 46 d1 78 bd
       0.07684909 -0.29262352 -0.08112293 -0.060746454
0001d0 d4 af 88 3d bb 70 56 3e 3e d3 0c be 3f f7 cc bc
       0.066741616 0.20941441 -0.13752457 -0.02502024
0001e0 0a 5c ab bb cb 1a cf bd e6 ef c1 bd e4 21 b7 bc
       -0.005229478 -0.10112532 -0.09469585 -0.022355027
0001f0 d6 74 e0 bd df 10 b3 bd f9 95 81 3e 9f 41 26 be
       -0.10959785 -0.08743452 0.25309733 -0.1623597

fc2.weight f4 [128, 128]
000000 d8 4e a1 bd 52 eb 81 bd 73 8f 88 3c 06 17 5b bc
       -0.078763664 -0.06343712 0.016669964 -0.013372188
000010 c9 65 dd 3c 3c f8 6d bc 6c 95 6b 3c 45 ae b4 bd
       0.027026074 -0.014524516 0.014378887 -0.08822302
000020 80 72 a0 3d c7 0e 09 bd a2 d8 66 3d 86 20 31 3d
       0.07834339 -0.03346136 0.05635894 0.043243907
000030 14 f7 d7 ba d8 05 a1 bd 9d 19 41 3d a3 aa 94 3c
       -0.0016476833 -0.07862443 0.047143567 0.018147772
000040 85 a9 9f bd c3 5c b1 3c 08 a6 76 bd e2 20 82 bd
       -0.07796005 0.021650678 -0.060216933 -0.06353928
000050 b7 11 cb bc 49 a0 c0 bb be 06 bd bc da 02 42 bd
       -0.02478872 -0.0058784825 -0.023074504 -0.047366
000060 f6 b2 7f 3d 9a 9c e9 bc 56 0b 03 3d e2 67 84 bd
       0.06242653 -0.028517056 0.031993233 -0.064651266
000070 81 30 63 bd 99 66 4d bd 82 ac 3b bd df 42 aa bd
       -0.05546618 -0.050146673 -0.045818813 -0.08313536
000080 37 b4 2f 3d d1 62 57 bd 93 cf a8 bd 5d c8 d1 bc
       0.042896476 -0.052584473 -0.08242717 -0.025608236
000090 a2 e2 ce 3c 9d 7a 43 3d a0 76 d3 3c 60 29 b4 3c
       0.025254551 0.047724355 0.0258134 0.021992385
0000a0 cf f4 e7 bd 4c 0e 35 3d 1b c0 a0 3d ea 64 68 bc
       -0.113259904 0.044203088 0.07849141 -0.014184216
0000b0 13 35 20 3c 4f 02 0e bc da 40 92 bd 9c 10 4f 3d
       0.009778279 -0.008667543 -0.07141276 0.05055295
0000c0 2f ac 83 3d 6b 61 ac bd ba f8 02 3c fa 98 31 bc
       0.06429326 -0.084170185 0.007993871 -0.010839695
0000d0 7b d6 48 bd 7a 36 81 3d 24 04 cc bd 1f 55 27 bb
       -0.04903267 0.06309219 -0.09961727 -0.0025532914
0000e0 ca bc 58 3c 95 3e 2b 3d 5c 3d ed 3c 36 dc d8 bd
       0.013228605 0.04180773 0.028959922 -0.10588877
0000f0 28 1a f2 bd 89 51 66 bd 4e b6 08 bd e4 a9 31 3d
       -0.11821395 -0.0562301 -0.033376984 0.04337491
000100 18 69 ab bc 2a e5 54 3c d4 87 9c bd b2 4f e4 3c
       -0.020924136 0.01299409 -0.07643095 0.027870033
000110 11 f1 03 bc fa 05 9b bd e7 33 cc bd 51 11 8d bd
       -0.00805308 -0.07569499 -0.09970837 -0.068880685
000120 45 2f 5d 3d ca 96 89 3b 4c f4 77 bd 3f 4c 4c bc
       0.054000158 0.0041988837 -0.060535714 -0.01246935
000130 de 5d 07 bd 6e 9b b2 bc d3 9b c7 3c 86 9a 88 3d
       -0.033048503 -0.02180263 0.024366295 0.06670098
000140 51 fc 35 3d 5b 66 55 bd 4f 3b 79 bc 0a de 7b 3d
       0.04443008 -0.052099567 -0.015211894 0.06149105
000150 f9 a6 f4 bd d8 dc d5 3c 95 46 4a 3d 07 7f 64 3c
       -0.1194591 0.026106283 0.04938372 0.013946301
000160 87 0b bb bc 59 85 b9 bd 4a d8 36 3d fe d8 40 3d
       -0.022832645 -0.09058637 0.044639863 0.04708194
000170 28 3e f3 bc 30 53 90 3c 52 b6 96 bd 2c c8 59 bd
       -0.029692724 0.017617792 -0.073589936 -0.053169414
000180 42 29 73 bd 18 a5 f3 bd 03 ba fd bd bc 89 51 3d
       -0.05936552 -0.118967235 -0.123889945 0.051156744
000190 e6 08 5d bd 18 4a 7f bc 2a 05 b7 bc d2 ee ad bd
       -0.053963564 -0.01558163 -0.02234133 -0.08492817
0001a0 9c ec 16 bd a0 de da 3b be 7c 43 bd bf fc cb bd
       -0.036846742 0.006679371 -0.047726385 -0.09960317
0001b0 4e 95 00 bd 74 a8 44 3c 78 3e 34 bc 76 88 e3 bc
       -0.031392388 0.012003053 -0.011001222 -0.02777503
0001c0 d0 2e 57 bd a3 32 a7 bd ce f9 1e 3d e6 33 82 bd
       -0.05253488 -0.08163955 0.03881245 -0.06357555
0001d0 18 72 27 bd 30 44 63 bd 1b c2 89 3d 38 7c 79 3d
       -0.040880293 -0.05548495 0.06726476 0.06090948
0001e0 39 22 75 bd e8 46 ad bc 6e 32 be bd 19 fc af 3c
       -0.05984709 -0.021151975 -0.092869624 0.021482514
0001f0 d7 d2 70 3d 73 dd 88 bc 8d 60 41 3d 6c 51 23 bd
       0.058794823 -0.016707158 0.04721122 -0.03987257
000200 bb 5c ae 3d b1 d2 80 3d c5 77 9a 3e 29 6a f7 3e
       0.08513781 0.06290186 0.30169502 0.4832318
000210 64 0e 3f 3e 0a 0a c6 bc f7 d0 08 bf d5 ba fd be
       0.18657833 -0.024174709 -0.53443855 -0.49556604
000220 fa f0 ea bd 43 06 88 3e b8 9f 47 3e 91 6c 0a 3f
       -0.11471744 0.26567277 0.19494522 0.5407191
000230 ac 76 bc 3e b4 69 4f 3f 98 51 7c be 57 3f 93 3e
       0.3680929 0.81020665 -0.246405 0.28759262
000240 77 74 86 be bc fb 23 be 22 6b 1f bc db 0c 81 3e
       -0.2626073 -0.16013998 -0.009730132 0.2520512
000250 32 69 fc 3d 29 18 0f be 2c 96 16 be c6 15 9f 3e
       0.12324752 -0.1397406 -0.14705724 0.310713
000260 ee 04 ff bd 46 cf 0e be ce 97 1a 3e 10 16 95 3e
       -0.12452112 -0.13946256 0.15096971 0.29118395
000270 71 6e 98 be 91 2f a4 bb 65 63 67 3e 00 4e 36 bd
       -0.2977176 -0.005010553 0.2259651 -0.04450798
000280 6b e0 d6 be 99 c2 cc bd e1 87 1f 3c 5a bf 90 be
       -0.41968092 -0.09998054 0.009736986 -0.2827099
000290 b5 a3 56 3e f6 bc f9 bc 60 b6 12 bf 62 78 1d bf
       0.20960887 -0.030485611 -0.5730953 -0.61511815
0002a0 8d df cd 3e 22 9b a4 bc b8 bf 6c 3e 6e c7 0c be
       0.40209618 -0.020093504 0.2312001 -0.13747951
0002b0 86 44 e8 bc 5c 96 89 bd e8 9f 60 3d 45 30 a7 bc
       -0.028352987 -0.06718132 0.05484 -0.020408759
0002c0 d4 3d e0 3e b9 8c 34 3e ee dd 85 bc f9 57 d3 be
       0.4379717 0.17631806 -0.016341176 -0.41278055
0002d0 9c 54 37 bf c2 c5 9a 3e 87 4c 1a be 3f 29 e9 3c
       -0.7161348 0.30229002 -0.15068255 0.02846205
0002e0 bf e5 a2 3d 3b 9c 82 be ff c3 9f 3e 65 cd d7 be
       0.07953977 -0.2550982 0.3120422 -0.4214889
0002f0 7c 66 e5 bd b8 c6 7d 3d ce 62 01 3d c4 02 fb be
       -0.11201188 0.06195709 0.031588368 -0.49025548
000300 cd 23 db 3c 15 6d 17 bd 7b ed 35 3f 92 c7 ab 3c
       0.02675047 -0.036969263 0.7106549 0.020969186
000310 32 9d a8 bd 45 45 ad bc 9a ea a1 bd b4 c0 2e 3e
       -0.082331076 -0.021151194 -0.07906075 0.17065698
000320 2f 30 8d 3e 2e cf ee bd a7 00 23 bd 7a f2 08 bf
       0.27575824 -0.1166061 -0.039795544 -0.5349499
000330 1f 5d ac be 34 7e a2 bc 63 eb 8a bd b4 89 bf be
       -0.33664796 -0.019835569 -0.06783178 -0.37409747
000340 07 0b ae be 5c 05 cd 3d de 9a 22 3f e2 df e3 3e
       -0.33992788 0.10010788 0.6351756 0.44506747
000350 b5 46 fd bd d0 84 20 3c d7 55 43 3f 47 6d cf 3d
       -0.12367002 0.00979729 0.76302856 0.10128265
000360 d0 c8 18 be 55 61 b0 3d de bc 86 3d 8e fb 44 3e
       -0.14920354 0.086123146 0.06578992 0.19236585
000370 db be 13 be 3e f4 b1 3c 9a d9 60 be 94 e2 6f 3e
       -0.14428274 0.021722909 -0.21958008 0.23426276
000380 b1 67 29 be a2 44 40 3e f3 19 5d be 54 31 24 bc
       -0.16543461 0.18776181 -0.2159193 -0.010021526
000390 97 72 25 3e 7d e0 a1 3e a7 79 d9 be 5a f7 8e bd
       0.16156994 0.31616583 -0.42475626 -0.06980772
0003a0 4d 45 4d 3e 9a 3f af 3e fd 4c a2 be f4 ca 2e 3e
       0.20045967 0.34228212 -0.31699362 0.17069608
0003b0 15 64 41 3e 7e 3c 48 3d 0a c0 d3 3c e8 1c aa bd
       0.18885835 0.048885815 0.025848407 -0.08306295
0003c0 5b e8 3b bf fb ec a8 3e 5d 42 3d 3e 79 c6 9a bd
       -0.7340142 0.32993302 0.18482347 -0.07557387
0003d0 07 d2 38 be c1 60 15 3e 35 cd 92 3d 2e a1 10 3e
       -0.18048869 0.1458769 0.071680464 0.14123985
0003e0 b0 3d 0e bf 0b 3b 5b 3d 31 64 f6 bc 38 00 3c be
       -0.5556288 0.053523105 -0.030077072 -0.18359458
0003f0 46 b2 d7 3d 44 2a ee 3e 10 c0 0f 3e 10 77 03 bf
       0.1053205 0.4651662 0.1403811 -0.5135355

fc2.bias f4 [128]
000000 69 2e f7 bd dc 5f b7 3c cd 5d 21 bd 65 7d 0c be
       -0.12069399 0.022384576 -0.039396096 -0.13719709
000010 03 aa 5b be 3a ac 58 be af b8 d5 3c 1b 3e 26 be
       -0.21451573 -0.21159449 0.02608904 -0.16234629
000020 d2 3b ab be 87 b6 17 bb 75 d0 70 3e 0f 56 ea bc
       -0.33444077 -0.0023149566 0.2351702 -0.028605489
000030 97 51 22 be a3 c6 93 bd dc a8 f6 bd 20 bb 8a be
       -0.15851437 -0.07215621 -0.12043926 -0.2709589
000040 1c c1 81 be c9 74 04 be 73 80 81 be a4 65 fd bd
       -0.25342643 -0.12935175 -0.2529331 -0.12372902
000050 cf 49 11 3d b4 d4 06 be 84 07 59 be ee 6e 45 be
       0.03547078 -0.13167077 -0.21194273 -0.19280598
000060 5d 55 b3 bd a1 98 0d bd 7b c0 3a be bc a0 5f be
       -0.08756516 -0.034569386 -0.18237488 -0.21838659
000070 34 16 11 bc 5e e5 db bd 82 3d bf be c3 1e f8 bd
       -0.008855391 -0.10737108 -0.37351614 -0.12115242
000080 da 13 f3 bd 73 b7 f5 bd 26 f3 ab bd 31 2c c4 bd
       -0.11869021 -0.11997881 -0.08395986 -0.09578741
000090 22 d1 8b bd 2c 9e 78 be d9 32 d3 bd cb 87 81 bd
       -0.06826998 -0.24279088 -0.10312433 -0.063247286
0000a0 43 c4 92 be f5 85 8e 3b c7 d7 0a be d7 26 4c 3d
       -0.2866536 0.004349465 -0.13558875 0.049841728
0000b0 e2 f9 8a be cf dc cb 3d e0 ce bf bd 6c 61 da bd
       -0.2714377 0.09954225 -0.0936563 -0.10663113
0000c0 6c 15 3d be 78 ff 3b be 73 1f 3e bd 40 a0 a6 bd
       -0.18465203 -0.18359172 -0.04641671 -0.08136034
0000d0 de 3c 0e be 6b d1 a9 be af 2d 3b be 91 25 f1 bc
       -0.13890406 -0.33167586 -0.18279146 -0.029436858
0000e0 08 0c 21 bd c1 8e 76 bd 13 80 73 bd 81 d7 84 be
       -0.039318115 -0.060194734 -0.059448313 -0.25945666
0000f0 47 31 f6 bd dd 57 f7 bd 3d a3 4e 3d 39 86 a8 be
       -0.12021118 -0.120773055 0.050448645 -0.32914904
000100 fa d4 f9 bd 9d be e2 bd bf bf b3 bd 02 ed 01 be
       -0.12198825 -0.11071513 -0.08776807 -0.12688068
000110 ee 21 ef 3d 56 2c 2b be 58 6c 00 be 20 ab e3 bd
       0.116763934 -0.16716132 -0.1254133 -0.11116624
000120 85 cb a6 be fa 7a 99 be 5e 25 1f ba 6d 70 61 bd
       -0.32577148 -0.29976636 -0.0006070937 -0.05503886
000130 e7 ee 18 be 48 13 a2 bd 23 8b c3 3d 35 01 8a be
       -0.14934884 -0.07913834 0.095480226 -0.26954046
000140 a5 04 88 be 9d 78 ab be 36 7f 07 3b ad 36 19 be
       -0.26566043 -0.33490458 0.002067519 -0.14962263
000150 7e b6 cc bd bc a2 8b be 86 41 92 be f7 67 94 be
       -0.09995745 -0.27272594 -0.28565615 -0.2898557
000160 a3 27 ce bd 10 ec 34 be fd 30 84 bd 42 00 f3 bc
       -0.10066154 -0.17668176 -0.06454656 -0.029663209
000170 8e 5e 16 be 33 03 00 be e6 1f b4 bd 67 95 57 3d
       -0.14684507 -0.1250122 -0.08795147 0.052632716
000180 97 ca 88 be 8a 73 97 bd 60 38 c1 3d 55 d6 13 be
       -0.26717064 -0.07395084 0.09434581 -0.1443723
000190 7b 2f 71 bd 55 50 c4 bd f2 df f4 bd a0 9b 52 bd
       -0.05888317 -0.095856346 -0.11956777 -0.051417947
0001a0 bf 2c a7 bd 5d 44 3b be 02 30 e0 bd 79 7d d3 bd
       -0.081628315 -0.18287797 -0.10946657 -0.103266664
0001b0 5c 7d bb be b6 99 c4 bd da e9 ea bd 4f 3a 31 bd
       -0.3661908 -0.095996305 -0.11470385 -0.043268498
0001c0 21 f5 86 be b2 9b a5 bd 43 cf 07 be f9 7a eb bd
       -0.26358894 -0.08086337 -0.13262658 -0.114980645
0001d0 b7 94 5b be 62 2b 78 3e 80 07 35 be d0 d3 13 3e
       -0.21443449 0.24235299 -0.17678642 0.14436269
0001e0 2b 70 61 bd 27 f3 70 be fe f6 9e be a6 0a 74 be
       -0.055038612 -0.23530255 -0.31047815 -0.23832187
0001f0 2e 19 c6 bd 80 9f 2c 3d a3 a4 73 be 81 49 62 bd
       -0.096727714 0.0421443 -0.23793273 -0.05524588

fc3.weight f4 [1, 128]
000000 b2 87 f6 3b 56 b5 5a be fd 4b 69 3c 8f 36 8a bc
       0.0075235004 -0.21358237 0.014239308 -0.016871719
000010 c0 9c de 3d 8b bd e2 3c db ea f2 3d 8f b0 e0 bc
       0.108697414 0.027678272 0.118612014 -0.02742794
000020 9b 01 a3 bb 36 61 e1 be 50 2c a4 bd a9 8f 81 be
       -0.0049745566 -0.4401948 -0.080162644 -0.25304917
000030 ae 62 03 3e ab 50 1f be 83 64 8e 3d 38 88 30 3d
       0.12830612 -0.15558116 0.06952765 0.04309866
000040 29 a5 68 be ac 6c af 3e 26 eb 44 3d 06 c3 80 3c
       -0.22719254 0.34262598 0.048075818 0.015717994
000050 15 4b bd 3e af 95 de 3d f1 2d 52 3e 25 8b 7b be
       0.36971346 0.10868394 0.20525338 -0.24564798
000060 c2 13 b3 3c 7e 18 c9 bd 34 36 03 3d d6 6c 52 bd
       0.021860007 -0.09819125 0.032034114 -0.051373325
000070 56 68 0f 3e 29 3b 7a 3e da 5c e1 3d 48 6d 1a 3a
       0.14004645 0.2443663 0.11004038 0.0005890918
000080 33 b4 66 3b d9 59 d4 3d 01 83 b2 be b4 2e 9f 3e
       0.0035202622 0.103686996 -0.34865573 0.3109032
000090 54 88 87 be 98 99 9f bc bc 7b 4f 3e bf b2 99 3d
       -0.26471198 -0.019482419 0.20262045 0.07504796
0000a0 5c 1a 23 3e 72 bb 97 3d b9 2c dd 3d 2a 35 1e 3e
       0.15928024 0.07408799 0.10799546 0.15449968
0000b0 e5 14 9b ba 99 81 d6 bd cb 90 21 be 70 7f 4e 3e
       -0.0011831789 -0.104739375 -0.1577789 0.20165801
0000c0 d8 7b bb bd 5d 15 96 3d c9 01 8d bc e4 a4 b3 3d
       -0.09154481 0.073282935 -0.017212765 0.08771685
0000d0 39 0d 0a 3c 2d 26 bf 3e c1 03 0d 3c 22 88 42 3c
       0.008426004 0.37333813 0.008606852 0.011873277
0000e0 d1 ee 33 bc c5 a9 19 be 88 27 c7 bd ea 81 55 3d
       -0.010982231 -0.15006168 -0.09724337 0.05212585
0000f0 31 61 c4 3b 34 21 31 3d ab 2b b8 bd 88 0f 00 bd
       0.0059930314 0.043244556 -0.08992704 -0.03126481
000100 04 bc 90 bd 24 af 9d 3d ff ec e2 bb db b5 2e 3e
       -0.07067111 0.07699421 -0.006925225 0.1706156
000110 e5 ae 35 be 96 24 2e bd ac 81 d6 3d 1d 2a bb ba
       -0.17742498 -0.04251536 0.10473952 -0.0014279519
000120 d1 2f 4b bd ca 83 0c 3e 27 00 99 3c dc 3c dd 3e
       -0.04960615 0.13722149 0.01867683 0.43210495
000130 bf f6 83 3c a8 04 57 3c 10 5b 90 be b8 e0 46 3d
       0.016108869 0.013123669 -0.28194475 0.048554152
000140 0a bc 94 3d d2 5d 18 3e 60 cb c3 bd ac 2f de bb
       0.07262428 0.1487954 -0.09560275 -0.0067805853
000150 10 c8 47 bd 30 12 c9 3d 52 d4 de 3d 53 03 2b bd
       -0.04877478 0.09817922 0.10880341 -0.041751217
000160 71 95 32 3e 37 6c 85 bd c7 9c 54 3d ca 5e 9e bc
       0.1743982 -0.06514781 0.051907327 -0.019332308
000170 87 87 35 bc 7f 65 d8 3e ba db 91 bb 41 69 e8 bd
       -0.0110796755 0.42264935 -0.0044512423 -0.113482006
000180 a6 53 fe bc e7 80 33 3c dd ea a7 be 6f 36 ca bc
       -0.031045746 0.010956026 -0.32796374 -0.02468416
000190 9e 9b b4 3d 99 23 8e bb 7f 98 10 be 8b 4b 0b 3e
       0.08818744 -0.0043377397 -0.14120673 0.13603036
0001a0 34 84 1c 3d b8 fd f0 bc 3f 3d cf 3d 9b 14 2e 3c
       0.038212016 -0.029417858 0.10119104 0.01062503
0001b0 ae 81 48 3d eb f9 1a 3c c6 92 06 3e 01 31 fb 3c
       0.048951797 0.009458999 0.13141927 0.030663015
0001c0 52 85 de bd ae 75 2b be e6 09 1b 3d ee 1c 64 3d
       -0.108652726 -0.1674411 0.037851237 0.055691652
0001d0 c3 e7 f4 3d 2a 1c 84 be ca db c9 bd b5 6f 23 be
       0.119582675 -0.25802737 -0.098563746 -0.15960582
0001e0 07 f9 9f bd 22 e8 6c 3e 10 46 04 3c a8 6c bb 3d
       -0.0781117 0.23135427 0.008073345 0.09151584
0001f0 22 b2 fe bc 46 a4 6c be 53 53 bf 3e 49 06 b3 3e
       -0.0310908 -0.2310954 0.3736826 0.34965733
